MLP_valError_1.704402397076289_T.pt (torch, 177026 bytes, 11 tensors)

weight f4 [100, 20]
000000 35 85 a5 3f f4 7d b9 3f ed 05 50 be 7a 32 f2 bb
       1.2931277 1.4491563 -0.2031476 -0.007391271
000010 22 91 ee 3e a7 aa 85 bf a4 b5 a0 3e 3a ae 8d 40
       0.46595103 -1.0442704 0.3138858 4.427518
000020 93 bd 78 3e 59 20 06 bf 7a 95 92 3d b2 6b 91 3d
       0.24291067 -0.5239311 0.07157417 0.071006194
000030 81 c0 33 3c e9 ac 06 3c 3a 98 bd bf 02 fa 17 3d
       0.0109711895 0.008219936 -1.4812081 0.03710366
000040 8a 11 09 be 8d b9 0e 3e b9 b2 11 3f 79 49 8e 40
       -0.13385597 0.1393797 0.56913334 4.446469
000050 9a c0 2a 3d 40 9e 35 3e b2 c1 e8 bd 77 fc d9 3e
       0.041687585 0.17736149 -0.113650694 0.42575428
000060 87 63 05 3e 72 c4 bc bd ef a1 4e be 7b c2 f2 bd
       0.13026248 -0.092171565 -0.2017896 -0.118535005
000070 3a e3 c5 bc 5d e3 c1 3e 54 58 0f 3e 1c e6 13 3c
       -0.024156202 0.37868777 0.13998538 0.00902703
000080 10 bf f6 3d c3 c0 f7 bc 7e 16 a3 bf 44 92 be bd
       0.12048161 -0.030243283 -1.2741239 -0.09305242
000090 df 2e 94 3e 3f 3c 3d be 81 b0 11 be 7f cf 10 bf
       0.2894201 -0.18480013 -0.14227487 -0.56566614
0000a0 29 1d 49 3d 29 84 33 be 29 3c 03 3e de c9 56 be
       0.049100075 -0.17530884 0.12815918 -0.20975444
0000b0 13 5e 69 bd 65 19 f5 bd e2 3d 4e 3e 5e d5 d9 bd
       -0.05697448 -0.11967734 0.20140794 -0.106364
0000c0 ae 02 38 be 88 81 b4 bd e7 b5 1d 3e b0 49 88 bd
       -0.17969772 -0.088137686 0.15401421 -0.0665468
0000d0 a4 16 27 bd c7 8f 05 be 7e cf 20 be 7f 22 35 3c
       -0.040793076 -0.13043128 -0.15704152 0.011055588
0000e0 da c9 29 3d 75 dc ce bd c8 10 20 bd 63 36 dc 3f
       0.041452266 -0.101006426 -0.039078504 1.7204098
0000f0 b7 f9 06 3e c9 51 df bd 0f 51 b9 3d 67 7d 02 bc
       0.13181196 -0.10904271 0.09048664 -0.007964469
000100 5e b7 bd 3d 48 b0 db 3d fb b6 20 3e 73 69 63 3e
       0.0926349 0.10726982 0.15694802 0.22208194
000110 0a 7d 0b 3e 95 5b 40 3c 9c 36 06 be 37 bf 1e be
       0.13621917 0.011740585 -0.1310677 -0.1550263
000120 a1 fe 13 be 42 56 91 bd f9 6c 86 3c fc b2 fd 3d
       -0.14452602 -0.070965305 0.016409384 0.12387654
000130 56 da dc bd 38 db d5 bb 2c 4f 31 3e 7a 43 df 3d
       -0.10783832 -0.006526377 0.17315358 0.10901542
000140 e0 52 e5 3d c7 8c 57 3e cf a7 58 3e f2 31 18 bd
       0.11197448 0.21049796 0.21157764 -0.037157007
000150 34 7e 3d be 22 24 14 be d0 b6 11 be ff 73 91 bd
       -0.18505174 -0.14466909 -0.14229894 -0.071022026
000160 ab cf 42 bd f3 ef ff 3d 4c 40 2d bd 7f a3 9f bd
       -0.04756133 0.124969386 -0.042297646 -0.07794856
000170 c1 3b b5 3d d6 e6 84 3c 5b a4 0c 3e 30 7c 50 3e
       0.08849288 0.016223352 0.13734572 0.20359874
000180 d1 a6 06 be 8c f6 30 3e 4a ff 61 be 14 9c 38 bd
       -0.13149573 0.1728155 -0.22070041 -0.045070723
000190 00 be 0b 3e 0c d5 9c bc af e2 1a be 77 81 60 be
       0.13646698 -0.019144557 -0.15125535 -0.21924387
0001a0 42 d2 32 be c3 d7 1d 3d f1 23 d3 bd 3d a5 42 3d
       -0.1746302 0.038535845 -0.1030959 0.047520865
0001b0 c9 20 c6 3c 23 d9 2c be 40 13 71 bd 9b d0 e1 3d
       0.024185555 -0.16879706 -0.05885625 0.110261165
0001c0 96 cb 94 bc 09 51 68 bc 30 4e 34 3e a5 5f 0b 3e
       -0.018163484 -0.014179477 0.17607951 0.13610704
0001d0 a2 36 6e bd fd 63 ca bc 06 65 04 3e a7 97 05 3c
       -0.05815757 -0.024705881 0.12929162 0.0081538325
0001e0 57 36 9f bf 36 2b f2 bf 75 fc 2d be 33 19 6f 3e
       -1.2438458 -1.8919437 -0.16990836 0.23349456
0001f0 f0 fd a8 3e bf cb c0 3e 7b c5 44 3e 70 78 e2 bf
       0.3300624 0.37655446 0.19215958 -1.7693005
000200 80 93 d5 bd 0f ee ae 3e 55 1f a9 3e a8 f6 10 be
       -0.10428524 0.34166 0.33031717 -0.14156592
000210 5c c4 d2 be 6c f9 01 3d b8 7e 72 bf 40 76 a8 3d
       -0.41165435 0.031732008 -0.9472461 0.082256794
000220 0f 14 88 be 2d 92 23 bf 08 a4 c6 3e 73 c9 31 c1
       -0.26577803 -0.6389492 0.3879702 -11.111682
000230 2f 9f 8e bb a7 f6 31 3d b3 6a 6b be f2 fb 4b be
       -0.0043524723 0.043448117 -0.22989921 -0.19920328
000240 ce 3c 75 3d ce 01 0a 3e b0 b0 83 bc 1c d4 14 3c
       0.05987244 0.13477251 -0.016075462 0.009083774
000250 bb dc 11 3e bb 2e 13 3e 2d ed 49 bd 56 f0 2e 3d
       0.14244358 0.14373295 -0.049298454 0.04270967
000260 4c 32 a2 be 67 b9 80 bd 36 31 36 be a1 ba 2c 3c
       -0.31678998 -0.06285363 -0.1779221 0.010542543
000270 ba 30 46 be 95 67 7f be 7f 81 da bd 9f e1 bd 40
       -0.19354525 -0.24941857 -0.10669231 5.9337916
000280 74 73 74 be fd 10 c5 bd 33 56 4f be 2d 77 83 be
       -0.23872167 -0.09622381 -0.20247726 -0.2567686
000290 f2 4c 89 bd 26 ef 80 3d 47 35 66 3e 86 28 a6 3d
       -0.06704129 0.06295614 0.22481261 0.08113198
0002a0 33 4d 44 3e 0f 73 8d 3d fe ed 3b be 54 65 cf 3d
       0.19170074 0.06906711 -0.18352506 0.10126749
0002b0 9a dc 54 bd f5 cb fa bc 1a a0 77 bd 00 55 e4 bd
       -0.051968195 -0.030614832 -0.06045542 -0.11149025
0002c0 0c fa 46 be 84 8f f5 3d 27 0f 9f bd c0 1e 2c c0
       -0.19431323 0.11990264 -0.07766562 -2.6893768
0002d0 3e 45 09 be 21 f8 f0 3e 73 c4 a4 bd 7c 57 73 be
       -0.1340532 0.47064307 -0.08045282 -0.23763841
0002e0 f1 9f 13 3c ab 46 34 ba 3f 56 6d 3d 5b 02 8f bf
       0.009010301 -0.00068769854 0.05794358 -1.1172594
0002f0 02 39 e5 3c 8e 62 21 bd d1 18 f5 3c 86 b4 64 be
       0.027981285 -0.03940063 0.02991906 -0.22334489
000300 1d 23 c0 be 45 21 4f 3d 9b f5 04 3f 95 70 9f bc
       -0.3752679 0.050568838 0.51937264 -0.019462863
000310 76 b7 00 3f a4 e7 3d be 39 7e 9d 3e 21 79 26 c1
       0.5027994 -0.18545395 0.30760363 -10.4045725
000320 bb 42 d1 3d c3 1a 26 be 01 7a b7 3e 0d b6 a4 3e
       0.10217806 -0.16221146 0.3583527 0.32170144
000330 a9 57 c5 bd 7e 97 33 3d 2a 92 3a be 6a 1c 02 bf
       -0.096358605 0.043845646 -0.1821982 -0.50824606
000340 82 ff 08 3e 34 7d c4 be 6d 4d 70 3f 00 5d 48 be
       0.13378718 -0.38376772 0.9386814 -0.19566727
000350 55 72 28 bf ca 08 e0 bd a9 66 53 3e d9 7b ac be
       -0.65799457 -0.109391764 0.2064463 -0.33688238
000360 95 9e 77 bd 2f 5f ce be 25 b1 ce be 1b 55 0d 40
       -0.06045397 -0.40306994 -0.40369526 2.2083194
000370 e7 b2 b7 3d 02 a8 a2 3e 67 97 c9 be 3b 1f f3 be
       0.0896967 0.31768805 -0.39373323 -0.47484764
000380 27 fa 57 3d 2f 87 2b 3d 45 36 8f bd 7d 33 c1 bf
       0.0527288 0.041876968 -0.06992773 -1.5093838
000390 26 c1 97 bc 07 0f c7 be 76 dc 2e 3d 72 36 a2 3d
       -0.018524718 -0.38878652 0.042690717 0.07920541
0003a0 55 6d 26 3e 5a 31 f8 bd ee e4 20 3f 16 03 c8 bc
       0.16252644 -0.12118788 0.6284932 -0.024415534
0003b0 35 09 22 3e 1f 2c f4 bd 02 68 25 3f 99 e6 5a c1
       0.15823825 -0.11922478 0.6461183 -13.681298
0003c0 45 b3 0a bb a5 7f be be 52 ea c7 3d 2b 68 5a 3e
       -0.0021163982 -0.3720676 0.0976149 0.213288
0003d0 c6 2a 02 3c bc 57 41 bd ec de 53 3e 84 5f 1c 3f
       0.007944768 -0.04720281 0.20690507 0.61083245
0003e0 d0 50 f0 bd 44 0b c3 3d 8c 54 2e 3e 29 6b 47 bd
       -0.11734164 0.09523633 0.1702444 -0.04868618
0003f0 1a c6 e6 3d 1f d8 db bd b3 44 7f bf 02 8d f6 3c
       0.112682536 -0.10734581 -0.997142 0.030096535

bias f4 [100]
000000 16 7e b4 3e 06 22 6e 3d bb 49 89 bc 0c 40 2f 3e
       0.35252446 0.058137916 -0.01675879 0.17114276
000010 e3 bb c8 3d 18 d1 8d bd 26 7f e5 3d 6c 93 9a be
       0.098014615 -0.06924647 0.11205892 -0.301906
000020 28 1e 7e 3c 73 d2 e8 3e ba 1b b9 3d 8b fa 0c 3f
       0.0155101195 0.4547306 0.090384915 0.550698
000030 bb 34 fa be f9 22 38 bd b7 90 79 bd 62 43 3b be
       -0.48868355 -0.044955228 -0.060929026 -0.18287423
000040 a0 b4 4a be 69 23 d8 bc 11 9a f6 bd db 07 d0 3e
       -0.19795465 -0.026384072 -0.120411046 0.40630993
000050 ac 03 a9 bb 75 9c 1b 3d 75 ca 92 be 77 dd 36 be
       -0.0051579084 0.037991006 -0.28670087 -0.1785792
000060 d3 1c 0d be 16 c2 7e 3b b6 86 3f bc 22 88 47 bf
       -0.13780527 0.0038873008 -0.011689832 -0.779421
000070 05 68 18 3e 7d 4b bd be a7 7c 65 3d b3 56 08 bc
       0.1488343 -0.36971655 0.05602708 -0.008321452
000080 c0 08 4d bf c6 a4 20 bf 5f 23 3a 3e 69 43 25 3e
       -0.80091476 -0.62751424 0.18177556 0.16138996
000090 f9 d5 1a bf ea 72 93 3e 9b 0d b6 bd 26 af 12 3f
       -0.60482746 0.2879861 -0.08889314 0.57298505
0000a0 75 48 8f 3b 49 e1 ce 3d e0 8e 4d be 0f ae 19 3e
       0.004372651 0.101015635 -0.20074034 0.15007804
0000b0 75 3c 66 3f c6 f0 9b bd c0 f5 bf 3e 02 58 19 bf
       0.89936 -0.07614283 0.3749218 -0.59899914
0000c0 9e 68 08 bf b5 38 c4 bd 0d a8 96 bd 91 93 9f 3d
       -0.53284633 -0.095811285 -0.07356272 0.07791818
0000d0 97 66 12 3d da bb 62 bb 07 da 1b bf a5 00 16 be
       0.03574237 -0.0034596832 -0.6087956 -0.14648683
0000e0 77 46 4d bf 82 9d 3f bf 4b a1 48 bd ff d1 03 3e
       -0.80185646 -0.7484971 -0.048981946 0.12873076
0000f0 2e 10 eb bd b5 50 ab 3b 75 f2 4e 3c 67 9f 0c be
       -0.114776954 0.005228127 0.012631048 -0.13732682
000100 14 b5 fc 3d e1 51 98 3d 1a 5d 27 be f1 da 44 3e
       0.123392254 0.07437492 -0.16344109 0.19224145
000110 e8 d6 36 be f1 25 ac 3d d9 87 05 3e f7 63 1f 3d
       -0.17855418 0.08405674 0.13040103 0.038913693
000120 9c 8d 49 3e e6 61 40 3e 77 fd 0a 3e 3e d3 41 3b
       0.19682926 0.18787345 0.13573252 0.0029575373
000130 2a f6 81 3d b4 b2 3e bf 8b 73 72 bd 58 f1 f9 bd
       0.0634578 -0.7449143 -0.05919222 -0.12204236
000140 1e 06 a2 3e 76 65 11 bf c0 0e da 3d 02 06 97 3c
       0.31645292 -0.5679544 0.106473446 0.018435482
000150 4a f9 4c 3e 24 5b 3c be b0 ac bc be f5 49 d6 bd
       0.20016971 -0.18394142 -0.368505 -0.10463325
000160 46 18 61 be ab 1e 10 3c 92 0d 7d bd 28 eb 0f 3f
       -0.21981916 0.008796374 -0.06178052 0.56218195
000170 89 a4 39 3e 9c 95 04 3c 76 f1 9c 3d 9b 6a d7 3d
       0.18129171 0.00809231 0.076632425 0.1051838
000180 f4 48 78 3e 63 a6 08 be f2 52 2d bf c2 a2 2c be
       0.2424658 -0.13344721 -0.6770469 -0.16858962

weight f4 [100, 100]
000000 ea 84 96 be 33 b2 44 3d 4f 53 fd bc 8f 0e cc bd
       -0.2939828 0.048021507 -0.030923514 -0.09963714
000010 1d a8 b1 bd e7 51 59 3d d4 d2 53 be fe 17 cc bd
       -0.08674643 0.053056624 -0.20685893 -0.09965514
000020 49 76 60 3d e2 8f f4 3d d2 b0 b1 bc 18 4d 1d 3e
       0.054800306 0.11941506 -0.02169076 0.1536144
000030 33 64 b9 be d6 d5 ea bc 21 6a cf bc 77 a1 ca 3d
       -0.36209258 -0.028666418 -0.02531916 0.09894078
000040 73 31 7c bc d6 17 30 3d 40 9b 9e 3d 87 c0 8d 3e
       -0.015392649 0.04299148 0.07744455 0.2768595
000050 68 74 02 be 89 2e c5 bd a8 44 1e 3d f3 71 76 bc
       -0.12739718 -0.096280165 0.038639694 -0.015041816
000060 da ed e9 bc b7 a0 8c bd 32 5c 93 bd 2c 2b 84 bf
       -0.0285558 -0.068665914 -0.07195319 -1.0325675
000070 35 25 96 3e 15 3f c5 3c f4 e8 ba bd 8e 75 74 3d
       0.29325262 0.024077931 -0.091264635 0.05968242
000080 d9 30 11 3e 8c f6 0a bf e7 28 0a bd b3 4a 75 3c
       0.1417879 -0.5428245 -0.033730414 0.014971423
000090 72 7b 27 3d 41 ad 90 bf a8 95 83 bc dc c3 86 be
       0.04088921 -1.1302873 -0.016062573 -0.26321304
0000a0 95 94 94 3d f3 d3 4e 3c 78 6a 93 bd 5d e0 68 bd
       0.07254902 0.012623775 -0.07198042 -0.056854594
0000b0 a3 f3 5e be 27 42 93 bc 5d d2 79 bc 98 21 c2 bf
       -0.21772628 -0.01797588 -0.015247908 -1.5166502
0000c0 88 27 14 bf 33 d5 76 3b dd 8f 38 bc 49 fb 9b 3e
       -0.5787282 0.0037663698 -0.011264768 0.30465153
0000d0 88 05 b3 3c f8 04 92 bd 9d 6a 28 3e 3a 64 18 3c
       0.021853223 -0.07129854 0.1644692 0.00930124
0000e0 61 17 14 bf c0 0e a4 be 5d a6 c8 bf 65 d1 a0 bd
       -0.57848173 -0.32042503 -1.567577 -0.07852439
0000f0 07 08 16 3d fd 23 4c bc 93 29 65 bd ea 28 21 bd
       0.03662875 -0.012459752 -0.05594785 -0.03934566
000100 6d 10 64 3d 80 9b 1b 3d c0 6d dd bc aa de 55 3d
       0.055679727 0.037990093 -0.027029872 0.052214302
000110 10 8d be 3d 55 93 2f 3d c2 1e 9d 3d 9a d8 b4 bc
       0.09304249 0.042865116 0.07671882 -0.02207594
000120 7a d9 af 3d 33 6b 2f ba e7 dc 11 3c 5a 6b 21 bc
       0.08586402 -0.0006691694 0.008902765 -0.009852255
000130 9c 68 3d 3e 53 da 91 3e cd 8f 4f 3d d2 c4 c9 3e
       0.18496937 0.2848688 0.05067425 0.39407974
000140 6f ee 83 bf 27 9d 81 3d 03 c2 2b 3d 9d 8b 0d bd
       -1.0307139 0.063288026 0.04193307 -0.034556974
000150 f3 2e 50 3c 87 d9 64 bd f3 56 0c c0 8d ff 6a bd
       0.012706506 -0.055871513 -2.192807 -0.05737262
000160 07 b3 8e bd d1 7f 53 bd b3 b4 ed bc fc 94 26 3e
       -0.069677405 -0.051635567 -0.029016828 0.1626777
000170 32 73 c4 bd 22 c3 a3 3d cd db 16 bb fd 99 90 bd
       -0.09592284 0.07996203 -0.0023019195 -0.07060621
000180 6f 31 83 bf a3 98 5f 3d 78 24 9a be 55 5c 27 bd
       -1.0249461 0.054588925 -0.30105948 -0.04085954
000190 bd 0c 3f bd 57 7d 99 bd af ca b7 3d 23 fc 9d 3d
       -0.046643008 -0.0749461 0.08974206 0.07714107
0001a0 30 28 69 3d 47 0b 89 bd 1a e1 33 bc 33 33 fd bc
       0.05692309 -0.06691604 -0.010978961 -0.030908203
0001b0 87 9f 83 bc 3a f6 39 3d 8d a6 7a 3d bf 49 b3 bd
       -0.01606728 0.045400836 0.06119399 -0.087543
0001c0 d3 12 47 bd 53 e5 b7 bd 43 24 0d bd 60 06 fc 3c
       -0.048601937 -0.08979287 -0.03445841 0.030764759
0001d0 37 68 4d 3d 1d 07 87 3d 67 57 bd bc ad cf b1 bc
       0.050148215 0.065931536 -0.023112966 -0.021705473
0001e0 12 e9 9d 3d c7 eb 75 bd d3 97 a5 bc 9b 5d c4 3d
       0.0771047 -0.060039308 -0.020213997 0.09588166
0001f0 3d ed a9 bd b3 68 b7 3b b3 7a ca 3d 03 d5 ab bd
       -0.08297203 0.005597198 0.09886684 -0.08390238
000200 4d 9b 66 bc fa 3c ee 3c 57 b7 8a 3d 80 5c 6b 3d
       -0.0140751125 0.02908181 0.067732506 0.05746126
000210 8d 1a 31 bd 87 9a ca 3d a0 b0 a6 3c 4d 60 a6 bd
       -0.04323821 0.09892755 0.020347893 -0.08123837
000220 f8 58 c5 3d 6d a0 0d bd 3f a5 c7 3d 67 e1 64 3d
       0.0963611 -0.034576822 0.09748315 0.055879023
000230 9d d3 c7 3d 68 19 b3 3d 40 ab 29 bd e0 1c b7 3d
       0.09757159 0.0874508 -0.041423082 0.08941054
000240 48 8c be 3d 93 2e e4 bc ed 2a 0c 3d b2 8e 85 bd
       0.093041 -0.02785424 0.034220625 -0.065213576
000250 92 9a 90 bd 9a 5b e0 ba e7 37 ef bb e7 7f a8 3d
       -0.07060732 -0.0017117143 -0.0073003653 0.082275204
000260 65 68 90 3d 73 fd 32 3c 80 28 13 3d b3 23 a5 bd
       0.07051162 0.010924685 0.035927296 -0.0806345
000270 e0 20 c0 bd 0a c0 ac bd e7 12 d9 bb e0 14 a0 bc
       -0.093812704 -0.08435066 -0.006624568 -0.019541204
000280 0a 55 27 bd fb 19 ab bd 1d 4f 74 3d aa 6b 53 bd
       -0.040852584 -0.08354565 0.05964576 -0.05161635
000290 cb fa 8c 3d 5a f8 d7 bc 6d bd 5f 3d df 0b a3 3d
       0.068837725 -0.02636354 0.05462401 0.079612486
0002a0 da e4 e1 3c ad 75 7b bd c7 d3 ba 3d 75 ad af bd
       0.027574945 -0.06139152 0.091224246 -0.08578006
0002b0 cd 6c 0b bd c0 7c b9 3d c7 fb ac bc cd 43 e3 bb
       -0.034039307 0.09056997 -0.02111615 -0.0069355727
0002c0 af 46 c1 3d cd 30 bf 3b f3 0b 45 3d 6a c3 52 3d
       0.0943731 0.005834675 0.0481071 0.051455893
0002d0 65 7a ac 3d 8d 26 4f bc 67 e9 1c bb 0d dd c4 bc
       0.084217824 -0.012643469 -0.002394283 -0.024031186
0002e0 da 40 39 bd b5 66 b1 3d 27 f4 bd 3c 72 ed 99 3d
       -0.045227863 0.08662168 0.02318771 0.07515992
0002f0 18 72 ac bd b0 d8 08 bd 9a 5b a2 3a 4d 60 f7 3c
       -0.08420199 -0.033409774 0.0012386919 0.030197287
000300 9a f1 5f 3c e7 e6 44 bc 5a ac 9f bd 5b 0e a4 bd
       0.013668442 -0.012017942 -0.07796545 -0.080105506
000310 e2 57 95 3d 9a 7c 8b bd 10 4e 71 3d c0 a9 97 bc
       0.07292153 -0.06810875 0.058912337 -0.01851356
000320 14 27 77 bd 83 88 37 bd 8d 8b 32 bd 3a 47 04 bd
       -0.060340002 -0.044807922 -0.043590117 -0.03229449
000330 3a 43 8f bd 00 2a 8f 3b c6 19 5d bd 73 4c 0f bc
       -0.06995244 0.0043690205 -0.053979658 -0.008746254
000340 b3 33 5c bd 31 68 ce bd 59 c5 d4 3a bb ce 97 bd
       -0.05376024 -0.10078467 0.0016233131 -0.074124776
000350 93 6c 00 be 1b 19 b3 bd 3a ab a1 3c 1a 7c e6 bb
       -0.12541418 -0.08745023 0.019734967 -0.007033837
000360 9a 69 83 39 4f 0a a4 bc 90 a7 a8 bd e1 f7 5b bd
       0.00025064946 -0.020024447 -0.08235085 -0.053703193
000370 a2 d8 60 bd 04 9c 38 bc f0 6c a5 3d 03 0b 6f 3d
       -0.054894097 -0.011267666 0.08077419 0.05836011
000380 3a dc 41 3d 80 95 30 3c 4d bf db bb 53 b5 9e 3c
       0.047329165 0.010777831 -0.0067061544 0.019373572
000390 8e 9a 42 bd 73 cf 57 3d 8d df 35 bd 67 9a 11 3d
       -0.047510676 0.052688073 -0.044402648 0.03554764
0003a0 87 c6 af 3c f0 9c f9 3b 7a 1b 1a bd f8 45 ae bd
       0.02145697 0.0076175854 -0.03762386 -0.08509439
0003b0 cf 56 6c bd 6d 67 7d bd 00 50 3c ba 79 d3 74 bc
       -0.057699975 -0.061866213 -0.0007183552 -0.014942997
0003c0 9a 9f 8d bc a7 2f 0d bc 20 ab c2 bc e3 1c 0d 3d
       -0.017288018 -0.008617318 -0.02376324 0.034451377
0003d0 0e ed 49 bc 73 85 bf bd 18 4f 82 3c c6 8c 3d bd
       -0.012324585 -0.09351625 0.015906855 -0.04627683
0003e0 96 cb 0a 3d ed 4e 93 3d 80 2c c0 3b dd ad 8d bd
       0.03388556 0.07192788 0.00586468 -0.069179274
0003f0 67 25 18 3c d7 79 8a 3d 8c d8 57 bd da 9f ad bd
       0.009286261 0.0676152 -0.05269675 -0.08477755

bias f4 [100]
000000 c9 7a ca bd 92 5a cc 3d 9e 12 0b be f3 b1 a4 3c
       -0.09886701 0.099782124 -0.1358132 0.020104384
000010 71 c6 9a bb c8 c7 96 bd ac 9b b2 bc f7 74 a6 3b
       -0.004723363 -0.07362324 -0.021802746 0.0050798613
000020 64 44 0d 3d e0 a4 4c 39 33 b3 1b 3d 53 ad e6 3c
       0.03448905 0.00019516377 0.038012695 0.02815882
000030 26 01 18 3d 1b 22 ee bd ae f3 82 bd 16 ed bc bc
       0.03711047 -0.11627599 -0.063941345 -0.02306227
000040 dc 7a 08 bd f7 86 b6 bd 22 4e de bd cd 66 f5 3c
       -0.033320293 -0.08912461 -0.108547464 0.029956246
000050 d3 6e fa bd f6 33 22 bc 1e d2 2c 3e 15 80 b7 bd
       -0.12228169 -0.009900084 0.16877028 -0.089599766
000060 07 d1 b0 bd f3 2f 0d be da 68 57 bd 51 da c0 bb
       -0.08633619 -0.13787822 -0.05259023 -0.0058854003
000070 e5 62 9a be f7 9f 3b 3d e7 df 78 bc 42 e5 a3 3c
       -0.30153576 0.04580685 -0.015190101 0.02000678
000080 9f 11 ab bd 5e cf 39 3d 68 4b 21 3e cd 4a 60 3d
       -0.0835297 0.045363776 0.15751421 0.054758836
000090 a2 ee 02 bd 10 7d 5b 3d b5 5a 18 3e bd 05 40 bd
       -0.03196586 0.053586066 0.14878352 -0.046880472
0000a0 87 55 e6 bc e7 55 53 3c 53 d7 a8 3d 6b 70 ee bd
       -0.028116954 0.012898899 0.08244195 -0.11642536
0000b0 eb ba 88 3c b7 93 a4 bc 27 34 19 bd f9 0b c4 3e
       0.016690692 -0.020089967 -0.037403252 0.38290384
0000c0 48 42 2a 3e 83 b9 a7 bd b9 8f 53 3e e3 66 4c 3c
       0.16626847 -0.081896804 0.20660295 0.012475702
0000d0 f3 de 9a 3c ed 45 24 bd 30 6f 80 3d d9 b4 82 be
       0.018905139 -0.04010575 0.06271207 -0.255286
0000e0 88 7c 2b be 9d 6a 1c 3e be a3 20 be 80 f2 8f 3c
       -0.16746724 0.15275045 -0.15687463 0.017571688
0000f0 85 f7 f6 3c 82 3a 27 3d 47 4f 04 be f0 18 4b bd
       0.030147323 0.04082728 -0.12920867 -0.04958433
000100 81 73 cb bd c0 3d 61 bd 92 38 9a bd d0 08 bb 3a
       -0.0993414 -0.05499053 -0.07530321 0.0014269594
000110 25 a5 48 3e ac b4 ef bd 82 02 db bd 19 9a 45 3e
       0.19594248 -0.11704382 -0.10693838 0.19297065
000120 d4 0f 6d be 3d 2e 21 bd 39 18 05 be fe 33 83 bd
       -0.23150569 -0.039350737 -0.12997521 -0.06406401
000130 ee 2c c2 bd aa ee 12 bf 33 ef 02 3c 57 e9 5a bd
       -0.09481226 -0.5739542 0.0079916 -0.053445186
000140 c0 a2 c0 bd a7 b5 df bc af 84 16 3f 4f f4 0f 3e
       -0.09406042 -0.027308298 0.5879621 0.1405804
000150 24 7c 6e 3c aa 27 ad bd a1 f4 29 be 17 c0 df 3c
       0.014555965 -0.08454831 -0.16597225 0.027313275
000160 b5 22 a8 3d 4f f5 5b 3b 39 68 5a bf be 55 1b 3f
       0.08209745 0.0033562963 -0.8531528 0.6067771
000170 97 17 5c bd 30 47 dc bd a1 cd 03 bc d6 53 ca 3c
       -0.053733435 -0.107557654 -0.008044631 0.02469818
000180 17 11 9e 3c 55 aa 7f bd ef 88 c2 bd ca 18 be bd
       0.019295258 -0.0624183 -0.09498774 -0.09282072

weight f4 [100, 100]
000000 b6 8a d8 3e 87 88 a6 3c 66 63 2e 3d 53 2f 23 3d
       0.42293328 0.020328773 0.042575262 0.039840054
000010 04 bb 7d bd b8 a1 35 3d 52 a7 ed 3b 83 50 e9 bd
       -0.06194593 0.04434368 0.007252612 -0.113923095
000020 9d 28 a7 3d 1b 4d 3e bc ab 98 33 bc ff 00 bb 3d
       0.08162043 -0.011615063 -0.010961692 0.09131049
000030 91 20 68 b9 b7 3d 46 bd ef 0a 96 bd 1a 3a 29 bd
       -0.00022137376 -0.0483987 -0.07326304 -0.041315176
000040 4b ff ec 3d ba 4e 30 bd 1a e4 a4 3c 2d 38 cc 3d
       0.11572131 -0.04304383 0.020128299 0.09971652
000050 27 9b cb 3d dc e7 fa 3c 5a 91 1a 3d f9 38 80 bc
       0.09941702 0.030628137 0.037736274 -0.015652167
000060 bb b6 41 bd cc 04 50 3d b1 e2 8d bd 4b 5e 95 bd
       -0.047293406 0.050785825 -0.069280036 -0.072933756
000070 38 12 97 bd ff 05 43 bd 5f d2 c0 3d 2c 8c c5 bc
       -0.07376522 -0.04761314 0.09415125 -0.02411469
000080 8f 04 7a bd 57 d4 cf bd 5a 43 0d 3e 0d ad 4e 3c
       -0.061039504 -0.101479225 0.13795224 0.012614501
000090 53 5a 03 bc c1 b5 d4 bd 40 18 41 3e d2 34 f9 3b
       -0.00801714 -0.10386229 0.18856907 0.0076051736
0000a0 1b 0b 80 3d 40 84 5a 3c 36 3e 39 3e 82 e8 e3 bc
       0.06252118 0.013337195 0.18090138 -0.02782083
0000b0 08 97 d3 3d df 4b b1 bd 87 c6 c6 bc 68 ca 45 3e
       0.10331541 -0.086570494 -0.024264587 0.19315493
0000c0 c1 20 62 3e 7a 53 b9 bc db 63 9a 3d ee 5a 0c bc
       0.22082807 -0.022622813 0.07538577 -0.008566601
0000d0 13 b0 6f 3d e2 da 79 bb 8c 3d 0f 3d 5b 18 56 3e
       0.058517527 -0.003812485 0.034970805 0.20907728
0000e0 7a 7e a3 bd a9 e0 2f bd 67 4f fe bc 7d 50 81 bd
       -0.07983108 -0.042938862 -0.031043721 -0.0631418
0000f0 0a b1 1c bb 15 21 63 bd 6c 86 d9 ba c5 09 a5 3d
       -0.0023909234 -0.05545147 -0.0016595847 0.08058504
000100 6c ee c2 bc d7 55 9d 3d a6 68 fa bb a7 d2 f9 bd
       -0.023795329 0.07682388 -0.0076418696 -0.12198382
000110 a8 5c 66 3d dd 21 bc bc 14 0e de bd 0d 6f 83 3d
       0.056240708 -0.022965366 -0.10842529 0.06417666
000120 bf 0e f5 bd 9e a4 4e 3d 20 2b 96 3c e1 f9 3c 3d
       -0.11965703 0.05044996 0.01833111 0.04613674
000130 4e d2 21 bd 37 ad 29 be 25 5f 97 3d b3 98 c1 3d
       -0.039507203 -0.16569982 0.07391194 0.09452953
000140 92 20 21 3d 20 ac 11 bd f1 18 7b 3d 48 b6 2d 3d
       0.039337702 -0.03556454 0.061303083 0.042410165
000150 99 e2 c6 bb 75 c9 2d bd 81 8d 64 bd 47 20 9b 3d
       -0.006069493 -0.042428453 -0.05579901 0.07574516
000160 60 1e 53 bd ea 2d 99 3d 76 4d 24 3e 7e 77 20 be
       -0.05154264 0.074794605 0.16045174 -0.15670583
000170 56 c1 d5 3d f4 2b 19 3c a3 bc b1 bd 9f 5b 00 3e
       0.104372665 0.009348858 -0.08678558 0.1253495
000180 3a 94 8c bd 8c d5 08 3d 3d 32 04 be f7 3d 85 bd
       -0.068642095 0.03340678 -0.1290979 -0.065059595
000190 bd 5c 88 bd cf ca b7 3d 50 03 31 3d 67 4b 28 3b
       -0.066583134 0.089742295 0.04321605 0.002567971
0001a0 43 ee 17 3d bd db 69 bd 73 b3 20 3c a3 d5 ae bd
       0.03709246 -0.057094324 0.009808409 -0.08536842
0001b0 c0 3b f6 bc 07 5c bb bc 37 79 ac bd 33 b9 2a 3d
       -0.030057788 -0.02287103 -0.084215574 0.041680526
0001c0 1d cf 8e bd 0d 47 85 bd 75 e8 bb 3d 00 d8 c9 3d
       -0.069730975 -0.065076925 0.09175197 0.09855652
0001d0 80 a9 34 3c 13 3d d2 bc 6a e9 72 bd 13 ba 17 3d
       0.01102674 -0.025663888 -0.059304632 0.03704269
0001e0 83 6b 9c 3d 6f e9 c6 3d dd 23 0d bc fd c1 32 3d
       0.07637694 0.09712493 -0.0086145075 0.043642033
0001f0 d3 71 42 bd cd b7 ab bb 33 34 a1 bd ad 1c 0a bd
       -0.047471832 -0.0052404166 -0.07871284 -0.033718754
000200 8d 5e be 3c f7 da 54 bd d3 fb 77 3d f7 bd 7c 3d
       0.023238445 -0.051966634 0.060542893 0.061704602
000210 63 e1 b5 bd 66 13 e7 3c 1d e5 33 bd 4d be 84 3d
       -0.0888088 0.028207492 -0.04391967 0.064816095
000220 7a c8 74 bd 1b 26 ab bd 3e 8c 8f bd 0d e5 65 3d
       -0.0597615 -0.083568774 -0.07009171 0.056126643
000230 07 45 27 bd 33 86 5a bb fe 72 b4 bd 90 17 23 3d
       -0.040837314 -0.003334415 -0.088109955 0.039817393
000240 eb 84 8b bd a7 2d 97 bd ad 70 51 bd 9a f6 68 3d
       -0.068124615 -0.07381754 -0.051132847 0.056875803
000250 7e 94 70 3d 0b 44 93 bd 63 6b 98 bd 77 0a c6 bd
       0.058735363 -0.071907125 -0.074423574 -0.09669965
000260 dd ca ad 3d f3 b8 da 3c b3 fd 7c bd d7 e6 6c bd
       0.08485959 0.026699519 -0.061765384 -0.057837334
000270 f3 f0 14 3c a6 45 0b 3d ea 72 8a bd ab 34 c0 3d
       0.00909065 0.03400197 -0.06760199 0.093850456
000280 12 0a 89 bc 1b 04 c1 bd c0 86 b2 3d 1a 44 93 3c
       -0.016728435 -0.09424611 0.08717108 0.01797681
000290 5d 38 4a bd 4d 05 59 3d dc f1 c4 bd 57 38 7f 3d
       -0.04937016 0.05298357 -0.096164435 0.06230959
0002a0 12 6f f9 bd 02 74 a5 3d 2d 22 07 3d ee fe 18 bd
       -0.12179388 0.08078767 0.032991577 -0.037352495
0002b0 4b fe aa 3d 77 84 36 3d 2d 10 8b bd 00 e8 cd 3b
       0.08349284 0.044559922 -0.06790195 0.00628376
0002c0 67 ee 88 bc 74 6d 91 3d 5a 96 62 bd 67 17 83 3b
       -0.016715242 0.07100955 -0.055319168 0.0040005925
0002d0 f2 a5 b3 bd 3f ca 95 bd 72 54 bf bd 9c 3b 63 3d
       -0.08771886 -0.07313966 -0.093422785 0.05547677
0002e0 c8 c2 87 bd 9f 80 bc bd 15 eb 91 bd 90 12 b3 3c
       -0.066289485 -0.0920422 -0.071249165 0.021859437
0002f0 8a 3f 7d bd e2 39 93 3d b1 ab 39 3d 74 dc 31 bb
       -0.061828174 0.07188775 0.045329753 -0.0027139457
000300 e7 4e f5 bc 73 8a a7 3c 1a 3f 30 3d 73 17 bb bc
       -0.02994485 0.02045176 0.04302893 -0.02283833
000310 40 83 b0 bc e0 e7 b3 3d 5a 74 a1 bd b3 65 d4 3b
       -0.02154696 0.08784461 -0.078835204 0.00648185
000320 2a 97 28 be 6d 14 a6 bc b3 7a ef bb 33 e0 21 3b
       -0.16463915 -0.020273412 -0.007308328 0.0024700284
000330 c7 5e b9 bd c9 6b 38 3d f3 e0 95 bd 47 5d ae 3c
       -0.090512805 0.045024667 -0.07318296 0.021284712
000340 bf 7e fa bb 2f ce 93 bd 6e 61 ce 3d 2a be 51 bd
       -0.007644504 -0.07217061 0.10077177 -0.051206745
000350 98 1a 2d 3d 64 50 45 bc 89 86 d3 3c f2 f8 11 be
       0.04226169 -0.012043092 0.025820987 -0.14255121
000360 f2 44 93 3d 6d 14 77 3d 78 4e bb bc 03 99 5e 3d
       0.07190885 0.060322214 -0.022864565 0.054345142
000370 72 88 d3 3c 23 b5 47 bd eb 0e 11 bd a7 44 5a 3c
       0.025821898 -0.04875673 -0.035414618 0.013322032
000380 e4 96 87 bd 88 d6 66 bc 9c ba 54 3d d2 a1 69 3c
       -0.06620577 -0.014089234 0.051935777 0.014259772
000390 80 a9 fe bc 30 7c 4b 3d 27 5a 2d 3d b2 1b cb 3d
       -0.031086683 0.04967898 0.042322304 0.09917392
0003a0 6e 36 0c bd 38 28 c0 bc 5e 76 93 bd 1f 3a b8 bd
       -0.034231596 -0.023456678 -0.07200311 -0.08995461
0003b0 10 e9 24 3c 0a ed 9c 3d 5a b9 1a bd 83 2d 23 bc
       0.010065332 0.07662399 -0.03777442 -0.009959581
0003c0 80 18 a0 bc 07 aa b6 bd 27 48 51 bd d0 de 79 bd
       -0.019542933 -0.08919149 -0.0510942 -0.061003506
0003d0 49 64 d0 bc e4 7d e2 bc 53 51 a9 bd 50 b7 ab 3e
       -0.025438445 -0.02764792 -0.082674645 0.33538294
0003e0 e4 63 ac bd eb 3a 0b 3d 52 2c 77 bd 53 9b 90 bc
       -0.0841749 0.033991735 -0.060345 -0.01765219
0003f0 93 3b ec 3c 8d 67 e9 bd 2f 77 eb bc 61 c3 0b bb
       0.028837001 -0.11396704 -0.028743355 -0.0021326172

bias f4 [100]
000000 c8 31 a5 3e ef 52 f4 3c 0f 8d 9a bd 38 7d 9d 3e
       0.32264543 0.029824702 -0.07546436 0.30759597
000010 9e 41 d1 3d a6 17 68 3c 75 68 47 3d 7d 28 72 3d
       0.102175936 0.0141657945 0.048683602 0.059120644
000020 79 d3 a8 bd 2a 0f 2c 3c 28 9b c1 bd a7 d1 22 be
       -0.0824346 0.010501662 -0.09453422 -0.15900289
000030 8f 54 ac 3c b7 31 78 bd e2 c4 31 bd ab 30 58 3d
       0.021036414 -0.060594287 -0.043400653 0.05278079
000040 de 1a 3e bd de 8a 73 3c c6 e1 01 3e 8d ec 34 3d
       -0.04641234 0.0148646515 0.12683782 0.044170905
000050 39 38 03 bd ca 92 ed 3e 83 b2 c0 3d 70 fd 7a 3d
       -0.03203604 0.46401054 0.094090484 0.061276853
000060 dc d6 de 3c 45 68 de 3c 67 38 b3 bb 38 a4 bc bd
       0.027202062 0.027149329 -0.00546937 -0.0921101
000070 23 a4 b2 3e 7e 00 97 3e 8d 61 6b be ea 92 aa bd
       0.3489085 0.29492563 -0.22986431 -0.08328803
000080 d8 c2 6d bd 8d f0 56 bd ea 08 5e 3d 7a 2c e2 bd
       -0.058047146 -0.0524755 0.05420772 -0.110436395
000090 78 16 69 3d 20 b0 17 3d 12 b5 fe bd a0 9c 20 be
       0.056906193 0.0370332 -0.1243688 -0.15684748
0000a0 d5 65 6b bd 26 68 88 bd be 1b 8b bd d3 fd a7 3e
       -0.05747016 -0.0666049 -0.06792401 0.3281084
0000b0 1c 07 7b bd a5 f4 87 3d a5 9e 9e bd a0 a1 73 bb
       -0.061286077 0.06638459 -0.07745103 -0.0037175193
0000c0 d5 79 1e 3d 14 76 ef bd 0d 88 41 bc 7a a2 06 bd
       0.038690407 -0.116924435 -0.011812222 -0.032869793
0000d0 e0 71 8e 3c d3 69 c8 3c 1b 6e 18 be 67 73 52 3c
       0.017388284 0.024464523 -0.14885752 0.012844897
0000e0 9a c7 09 bb 09 5e 19 be 25 41 31 bd 65 ff ac 3c
       -0.0021023513 -0.14977278 -0.043275017 0.021117875
0000f0 54 52 89 bd ce 1a 72 3e 65 e7 8f bd 8c ea 67 3d
       -0.06705156 0.23643038 -0.07026557 0.056620166
000100 f5 f5 f8 bc ce ef c0 bd 4e 8c ad 3e 1d 3b 7f 3d
       -0.030390719 -0.09420739 0.33896106 0.062312234
000110 55 9b f2 3b 85 be 03 be 6d 70 0f 3d 68 fd d2 bc
       0.007403771 -0.12865646 0.035019327 -0.0257556
000120 ee ca 8f bd 12 ce 7f bd bd e4 6c 3d 95 22 dd bc
       -0.07021128 -0.062452383 0.05783533 -0.026994029
000130 82 de 16 bb 80 b2 2d 3d 6a 0c 40 bb 90 05 df 3e
       -0.0023020809 0.04240656 -0.0029304274 0.4355893
000140 a6 a7 f8 3b 9a 7d 6d bd bd 40 73 bd dd e0 21 bd
       0.0075883446 -0.05798111 -0.05938791 -0.039521087
000150 33 4b 59 3d 60 ba b1 3e 73 94 9d 3d 0d 74 26 3d
       0.05305023 0.34712505 0.0769433 0.04063802
000160 05 de 2c 3d 7d bd 25 bd a7 cc 50 3d f5 88 f2 bc
       0.04220392 -0.040463913 0.05097642 -0.029606322
000170 1d 70 c0 3e 25 c5 97 3c bf 07 91 bd 57 2c 91 bc
       0.37585536 0.018526623 -0.070815556 -0.017721338
000180 ba 36 1d bf c0 9e 55 bd 8d ef b7 3e 05 f3 19 be
       -0.6141163 -0.05215335 0.3592495 -0.15034111

weight f4 [100, 100]
000000 d3 cc cd 3d 5d 01 c7 bd 54 34 41 3d f9 ce 8b bd
       0.10048833 -0.09717057 0.047169045 -0.06826586
000010 21 1f c5 3c 33 45 f9 bb d7 c0 51 bd 67 a6 d9 ba
       0.024062695 -0.007607126 -0.051209297 -0.0016605378
000020 f3 f1 59 3c 7a 0a b8 3d b8 b6 30 3d 35 3d 9f bc
       0.013302314 0.08986373 0.043143004 -0.019438365
000030 cf e8 e2 38 fa e0 e5 bc 35 21 5f 3c f0 4c a4 3d
       0.00010819884 -0.028061379 0.013618757 0.08022487
000040 5e 6d 0f 3d f3 f9 a4 3c e4 d6 37 bc e8 7a 8d bd
       0.03501641 0.020138716 -0.0112206675 -0.06908208
000050 54 a2 3c bc 56 dd 28 3d 22 2c 49 bd f5 72 cc 3d
       -0.011513311 0.041226707 -0.049114354 0.09982864
000060 21 89 df bc db 83 c6 bd fe 1a 86 3a 78 e1 a6 bd
       -0.027287068 -0.09693118 0.0010231433 -0.081484735
000070 0e 65 69 bd f3 07 5d bc 85 53 10 3c 4f f1 a2 bd
       -0.05698114 -0.013490665 0.008808975 -0.07956182
000080 87 18 30 3d 38 1f 86 bd 16 9f 40 3d 6d 27 6f 3c
       0.04299214 -0.06548923 0.047026716 0.014596802
000090 0f 19 e8 3c cc 08 b6 3d df 96 3b bd a4 12 b6 bd
       0.028332261 0.088883966 -0.04579818 -0.08890274
0000a0 6e 12 dc 3d 92 f7 b9 bd 78 86 cb bd af d2 f8 bc
       0.10745703 -0.090804234 -0.09937757 -0.0303739
0000b0 9b 77 61 bd 5a 22 8f bd 37 4a 8c 3d 6b f7 c6 3d
       -0.055045705 -0.06988974 0.06850093 0.0971516
0000c0 72 7d 99 bd d9 c0 5d 3d 1a 4b 42 bd 0d 04 19 bc
       -0.0749463 0.054138992 -0.047434904 -0.009339345
0000d0 7b 5d a9 3d e7 84 a3 bd 4f e0 93 3d 38 7e 9b bd
       0.08269783 -0.079843335 0.07220518 -0.07592434
0000e0 67 60 26 3d 64 ee 0d bd a3 46 80 3d a1 97 23 bd
       0.04061928 -0.034651175 0.06263473 -0.039939526
0000f0 27 e5 9c 3d ba 21 c5 3c 80 11 1a bc 72 29 f1 bc
       0.07660895 0.024063934 -0.009403586 -0.029438708
000100 0a c8 36 3d 9a 9b b8 bb 1f 09 98 3b a6 c3 b6 3d
       0.044624366 -0.0056337835 0.004639759 0.08924036
000110 97 2d 0d bd 2c d1 aa bd f3 59 c2 bd e4 4c b1 bb
       -0.034467306 -0.083406776 -0.09489813 -0.0054107774
000120 54 a9 6d 3d 20 ff b4 3d 3f 0b 9e 3d 5a cd 40 bd
       0.058022812 0.08837724 0.07716989 -0.04707084
000130 a6 b3 6e bd 2b 6f 8f bd 2d 30 c1 3d 4b ca 37 bd
       -0.058276795 -0.070036255 0.09433017 -0.044870656
000140 cb b6 62 bd 27 9b 02 3c 6c dd 57 3d 17 8c 99 3d
       -0.055350106 0.0079715615 0.0527014 0.07497423
000150 97 6f 6c bd 47 1a 92 3b 7f 08 13 bd 87 c9 90 bd
       -0.057723608 0.004458699 -0.035896774 -0.07069688
000160 c9 6a c9 3d 31 8e 92 3c ce 3f c4 3d 93 c8 13 3d
       0.09834821 0.017890068 0.09582482 0.036079954
000170 16 c5 b2 bd b7 ad c6 3d 79 14 34 3d 25 7a 4e bc
       -0.087289974 0.09701102 0.043964837 -0.012602364
000180 25 ab b0 bd 27 4b 7e 3c 6d 3b 49 bd b2 b0 95 bd
       -0.08626393 0.015520847 -0.04912894 -0.073090926
000190 14 fe c2 ba c0 2f 88 3d 64 dc 49 bb 72 dd df 3c
       -0.0014876747 0.066497326 -0.003080153 0.027327273
0001a0 38 3c a7 3d 97 87 34 bd 0b 7d cc 3d 67 c5 8d 3c
       0.08165783 -0.04407462 0.099847876 0.017306043
0001b0 50 e3 6e 3c 7e de 2e bc a1 c8 db 3c 1f 17 7c bd
       0.014580563 -0.010673163 0.026829066 -0.061545487
0001c0 3c 88 44 bd a7 b1 ac bd 8b 2e 92 3d 6a 2a 04 bd
       -0.047981486 -0.08432322 0.071377836 -0.03226701
0001d0 6b 67 d2 bd f2 61 b7 bd 23 52 0d 3d 53 da 35 bd
       -0.10273632 -0.089542285 0.03450216 -0.044397663
0001e0 16 30 86 3d 1b db 97 3d 52 65 2f bd cd aa 8a 3d
       0.065521404 0.07414838 -0.042821236 0.06770859
0001f0 52 0c bf bd f0 6c 8c bd 26 a1 c4 bd 03 a5 78 bd
       -0.09328522 -0.06856716 -0.09601049 -0.060704242
000200 6a 5c da bb c7 56 fb bb fb 67 0e bd 61 d6 d7 3c
       -0.0066638486 -0.007670257 -0.034767132 0.026347341
000210 22 cb 99 3d 67 01 e0 bc 1d 64 15 3d 99 b5 8f bd
       0.07509448 -0.027344419 0.03647243 -0.07017059
000220 57 1c 9f 3d 1d 4e 84 bd 1a 81 75 3d 5f b1 5d 3d
       0.07769077 -0.064602114 0.059937574 0.054124232
000230 10 0f b8 bb 7a 04 f7 bc 6d 1d c1 bc 01 15 cf bb
       -0.00561703 -0.030153502 -0.023573602 -0.0063196425
000240 2f 10 21 bc 37 3a 45 3d cf ab ae bd b3 e3 1d 3d
       -0.009830519 0.04815122 -0.08528864 0.03854723
000250 2d 7f 8c 3d e3 7d 8d 3d a8 c0 39 3d da 9a 4e bc
       0.06860194 0.069087766 0.045349747 -0.012610162
000260 a7 72 81 3d b7 ce ba 3d 2a 3d 0d 3d 90 2a 1f 3d
       0.06320696 0.09121459 0.03448216 0.03885895
000270 13 e7 5d bd a1 f8 2c 3d 6b d4 ee 3c 8e 2d d3 bd
       -0.054175448 0.0422293 0.029154023 -0.10311423
000280 15 36 65 bd 5e b1 d8 bd 4f 7e bf 3d 52 7d ee bc
       -0.05595978 -0.10580705 0.09350263 -0.029112492
000290 5a d1 fd bc 63 2a 94 bd 20 d7 08 3d c0 b6 3f 3c
       -0.030983616 -0.07234647 0.033408284 0.011701286
0002a0 86 35 18 bd ca c6 9e bd 00 54 d3 bb b2 c1 ac bd
       -0.03716042 -0.0775276 -0.0064492226 -0.08435382
0002b0 5d b1 a7 bd fa 63 ff 3c 27 b6 f9 3c f8 ef 16 bd
       -0.08188126 0.031175602 0.030482365 -0.036849946
0002c0 ca f9 af bd ca 33 c8 bd 7d 56 1a bd e0 77 9f bd
       -0.08592565 -0.09775503 -0.037680138 -0.07786536
0002d0 62 46 b9 3d 30 9f 42 3d 0c 28 98 3d 8d e7 62 3d
       0.090466276 0.047515094 0.07429513 0.055396605
0002e0 92 6d 22 bc 18 45 43 bd 76 8b dd bd 90 9a 14 bd
       -0.009913819 -0.047673315 -0.10817616 -0.036280215
0002f0 6c f7 97 3c 93 cd 58 3d 44 b5 d8 3c 90 b3 8e bd
       0.018550597 0.052930426 0.026453622 -0.069678426
000300 b0 f7 09 bd 45 45 96 3d 79 83 ba 3d 9f 83 87 bc
       -0.03368348 0.07337431 0.09107108 -0.016542254
000310 93 0e e3 bd f3 38 fe 3c e2 c3 6a bd 6d 69 b0 3d
       -0.11086764 0.031033015 -0.057315715 0.08613858
000320 87 21 4b bd c0 d6 c7 3d 14 a8 b2 bd 65 4e a5 bd
       -0.04959252 0.09757757 -0.087234646 -0.08071593
000330 71 0d 54 3d 30 ea 64 bd 7a 0b 81 bd 08 a8 ac bd
       0.05177063 -0.0558874 -0.06301017 -0.08430487
000340 04 dc f9 bc 15 34 76 3c 7c 63 aa bd 84 8f f6 39
       -0.03050042 0.015027066 -0.083197564 0.00047027704
000350 00 3e fb bc ba d4 10 3d 98 7f a7 3d 00 f2 ee 3a
       -0.030669212 0.03535912 0.081786335 0.0018230081
000360 42 22 d8 3c a7 97 78 bc 61 f8 a0 bd 41 54 cc 3a
       0.026383523 -0.0151728755 -0.078598745 0.0015589074
000370 d0 68 4e 3d 20 19 4f bd e3 98 6d bc 00 20 d7 bc
       0.050392926 -0.05056107 -0.014501783 -0.026260376
000380 1b 53 14 bc 5a 80 68 3d ba 9e 8f 3d ba e6 a8 bc
       -0.009053017 0.05676303 0.070126966 -0.020617831
000390 11 bd 66 3d 67 c4 89 3d c0 02 70 3c 18 4d a3 bd
       0.05633265 0.06726914 0.014649093 -0.07973689
0003a0 20 3c 9f bd 00 20 48 39 3b 57 53 3d 10 4e 96 bd
       -0.0777514 0.00019085407 0.05159686 -0.07339108
0003b0 a9 15 23 bd d2 2a f8 ba 0a dd 6a 3d df c6 83 bd
       -0.03981558 -0.001893366 0.057339706 -0.06434416
0003c0 2b 21 e3 bd 78 d9 df bd 9a b5 3a 3c 6d c4 54 bd
       -0.11090311 -0.10930151 0.011395836 -0.05194514
0003d0 e2 ab 1a bd 67 e6 61 b9 d3 e6 79 bd 1d 44 b3 3d
       -0.037761576 -0.00021543504 -0.061011147 0.08753226
0003e0 ec 6f 83 3d 7d 13 04 3d 67 70 0c 3d 9a 05 38 bd
       0.06417832 0.032245148 0.034286883 -0.044927217
0003f0 93 36 af 3c 4d 96 a5 bb 62 90 8c 3d 6a 96 89 bd
       0.021388328 -0.0050533176 0.06863476 -0.06718142

bias f4 [100]
000000 79 9c 89 3c cf 48 e7 3c 2c 1b 68 bd 1a 09 e8 bb
       0.016798245 0.02823296 -0.056666538 -0.007081163
000010 a1 df 32 bd 06 17 97 bd c7 15 17 bd c8 eb ed 3b
       -0.0436703 -0.07377438 -0.036886003 0.0072607733
000020 f0 c9 b3 bd 3e f8 54 3c e4 f0 f9 3e 3a 28 6d bc
       -0.08778751 0.012998639 0.48816597 -0.014474923
000030 7b 06 28 3d c7 ad 80 bd 1e d0 25 bd 7c 1b a0 bb
       0.041021805 -0.062831454 -0.04048168 -0.004886089
000040 31 d9 5a 3c 96 19 c8 3e 47 c2 5f bd 03 73 93 3d
       0.0133574465 0.3908202 -0.054628637 0.07199671
000050 95 a2 b0 3d ef 8f 13 3f 77 28 a9 3d 60 a2 30 3d
       0.0862476 0.576415 0.08259671 0.043123603
000060 76 8a 80 bd 9d f9 75 3a c7 95 b0 bd 2d ea c5 bc
       -0.06276409 0.00093832036 -0.08622318 -0.024159515
000070 e2 0a e4 bd ee 61 31 bd ef 7c fd 3d 93 7e b4 ba
       -0.11134888 -0.043306284 0.12377345 -0.0013770632
000080 1b b5 f2 3e 37 96 a8 bd 18 6a 54 bc a3 8b 30 3c
       0.47403798 -0.08231776 -0.012964748 0.0107754795
000090 c8 05 80 bd c0 84 7a 3c 40 35 d8 bc f4 80 f7 bc
       -0.06251103 0.015290439 -0.02639258 -0.030212857
0000a0 a0 38 8f 3d b2 60 a5 3d 9b 7d 93 3d d2 5b b2 bd
       0.06993222 0.08075084 0.07201692 -0.087089196
0000b0 03 8f 0c bd f1 55 dd 3c df b0 06 bd 00 85 57 bd
       -0.034316074 0.02701852 -0.03288352 -0.052617073
0000c0 35 a1 6f bd c0 85 12 bc c1 0c 43 3c 98 2d 82 3d
       -0.05850335 -0.008943021 0.011904896 0.063563526
0000d0 c2 6e ef 3e 00 74 bc bc f0 25 14 3f e3 e1 2b bd
       0.4676419 -0.023004532 0.5787039 -0.04196347
0000e0 e0 3f b2 bc 3c d3 94 3b 8d 40 2f 3d b3 86 12 3f
       -0.021758974 0.0045417827 0.04278617 0.57236785
0000f0 98 97 be bd 83 66 ad bc b3 8d 4f 3c 99 22 9e 3d
       -0.09306258 -0.021167045 0.012668061 0.07721443
000100 e7 d0 59 3c e0 14 ae 3d 9e 05 f2 3c 03 fa 98 3d
       0.013294435 0.08500075 0.029543694 0.07469561
000110 52 32 8d 3c cd 3a dd 3d 1f 85 27 bc 44 71 9c bd
       0.017235909 0.10802231 -0.01022461 -0.07638791
000120 5c 2f 01 3f 31 c9 13 3f b3 fc 0c 3e 9a 5b 42 bd
       0.5046289 0.5772887 0.13768272 -0.04745064
000130 63 36 ae bd 3a 7a 87 bc ef 54 7a 3d 17 ce 97 bd
       -0.08506467 -0.016537774 0.061116155 -0.074123554
000140 0b e4 96 3d 23 91 a5 bd 37 f4 2d bd 87 62 01 3f
       0.073677145 -0.08084323 -0.04246923 0.50540966
000150 0d 84 09 3f be eb 00 bc f0 ce d4 bd df de 4f bc
       0.5371712 -0.007868705 -0.10391033 -0.012687414
000160 9b c3 c5 bd aa 6a 03 3f 79 c8 f3 bd a2 04 72 3b
       -0.096564494 0.5133463 -0.119034715 0.003692903
000170 80 fd e4 bb ae 45 e1 3e 27 43 fb 3c e7 55 3b 3c
       -0.0069882274 0.43998474 0.03067167 0.011434055
000180 6e 02 03 bd 72 c0 61 bd e7 91 be bc 6d e2 99 3d
       -0.03198474 -0.05511517 -0.023262931 0.075138904

weight f4 [100, 100]
000000 f7 24 93 bd 55 d9 68 3d 82 01 75 bd bf d3 95 bd
       -0.07184785 0.05684789 -0.05981589 -0.07315778
000010 fa 7c 1b bd ca 96 e0 3c 25 4d b5 3d c8 7d f9 bb
       -0.037960984 0.027415652 0.08852605 -0.0076138712
000020 07 b6 27 bd d3 05 b4 3c 07 37 85 bd f2 ac b8 b9
       -0.04094508 0.021975433 -0.06504636 -0.0003522407
000030 a5 e1 90 3d 13 69 33 3d eb 65 c4 bd 71 7f dc 3a
       0.07074288 0.04380138 -0.09589752 0.0016822648
000040 cd ab 7d bd a5 ae 54 bd 3a ce 9c 3c da 53 8f 3d
       -0.06193142 -0.051924367 0.019141305 0.06998415
000050 dd c1 ac bd d6 3b 98 3d 2a fd a5 bd 9b 9f b7 3d
       -0.08435414 0.07433288 -0.08104928 0.08965989
000060 77 10 72 3d 90 74 c4 bd 9c 89 e0 bd 2d 26 aa bd
       0.059097733 -0.09592545 -0.10963747 -0.08308063
000070 6f 9d 1c bd 88 37 3c 3d 9b a2 cc bc e0 c2 d1 3c
       -0.038236078 0.045951396 -0.02497988 0.025605619
000080 1a ae 5d bd 12 ac b2 bd d1 5f 37 bc 1b e3 a6 3d
       -0.054121114 -0.08724226 -0.011192278 0.08148786
000090 74 aa db bc c0 c3 a3 3c a7 82 ab bd 4f 99 fc bc
       -0.026814677 0.019990802 -0.08374529 -0.030834822
0000a0 77 48 a5 3c 3c b7 4b bd 3a d4 55 bd dd a3 0a bd
       0.020176155 -0.049735293 -0.05220435 -0.03384768
0000b0 40 5a 7d bd db 62 11 bd ff 00 96 3c 91 4f b1 3d
       -0.061853647 -0.035494667 0.018311022 0.08657754
0000c0 f7 ce 74 3d 75 f6 b8 bd e7 14 74 3d f3 2a 80 bc
       0.05976769 -0.09031383 0.059590247 -0.01564548
0000d0 c6 cc 33 bd 37 f5 35 bd c0 04 70 3d 90 01 7c 3d
       -0.04389646 -0.04442331 0.05859828 0.061524928
0000e0 bd 00 7c bd e3 a4 e0 3c 4a e8 22 bd 9a 62 98 bc
       -0.06152414 0.027422374 -0.03977231 -0.018601704
0000f0 90 0e 86 bd ab fe c2 bd 07 5b 99 3d 95 bd 38 3d
       -0.06545746 -0.0952123 0.07488065 0.045102675
000100 30 05 ab bd ab 73 23 3d 01 ab 85 3b ff 32 9b bd
       -0.08350599 0.03990523 0.004079223 -0.07578086
000110 80 68 d0 bd 85 33 37 bc a0 96 95 3d 6d 5b 7f 3d
       -0.10176182 -0.011181717 0.0730412 0.06234305
000120 ec 3a ab 3d f9 39 85 3d 90 35 eb 3b 98 72 b3 bc
       0.08360848 0.06505198 0.007178016 -0.021905228
000130 67 e8 85 bd 07 5c 83 bd 6f 52 91 bd 48 fd 5d bd
       -0.06538468 -0.06414037 -0.07095801 -0.054196626
000140 eb e2 9f bd 63 ce 75 bd ed 56 1c bd bf 7c 90 3c
       -0.07806953 -0.06001128 -0.038168836 0.017637609
000150 18 78 9d 3d 5d 9d 93 3d 32 74 82 bd fd 55 a8 3d
       0.07688922 0.07207749 -0.06369819 0.08219526
000160 57 bd 87 bc 44 59 a8 bd 34 b5 00 3d 67 d9 37 3d
       -0.016569776 -0.08220151 0.03142281 0.044885065
000170 b2 66 ac bd f4 63 93 bd 3f 0e 9b 3d 84 63 33 bd
       -0.08418025 -0.07196799 0.075710766 -0.043796077
000180 7d 8b 94 3d 25 5a 19 3c e7 00 ea 3b 97 80 38 3d
       0.07253168 0.009359871 0.007141221 0.045044508
000190 05 9b 9f bd 2a 62 06 3d 0d 06 5a bd 67 88 0a bc
       -0.077932395 0.03280846 -0.053228427 -0.008455372
0001a0 87 fe ef bc 73 3a 88 bc 33 ca b4 3b 27 ba 63 bd
       -0.029296173 -0.016629433 0.005517268 -0.05559745
0001b0 2d 8b 3a bd ef 23 82 bd 3a 59 7a bd 65 99 9c 3d
       -0.045542885 -0.0635451 -0.06112025 0.07646445
0001c0 13 ee da 3c a0 73 fd 3c 93 54 2e 3d e7 db f3 bc
       0.02672485 0.030938923 0.042561125 -0.029767944
0001d0 9d 38 3f bd 5a 4f a8 3c 28 e4 90 bd d7 b2 8d bd
       -0.04668485 0.02054565 -0.07074767 -0.069188766
0001e0 33 19 13 3d f3 25 ab 3d 9a 85 00 bc 30 5e 87 bd
       0.035912704 0.083568476 -0.007844353 -0.06609762
0001f0 cd e7 e3 bb 68 f5 82 3d 35 a9 bd bd da 89 0e 3d
       -0.006955123 0.06394464 -0.09260789 0.034799434
000200 13 bc d3 3c 7a 79 c6 bc 00 65 3a bb e7 76 b4 3c
       0.025846517 -0.024227846 -0.0028441548 0.022029353
000210 33 81 ff 3c 27 9f 0e bd 7a ec c2 bc 5a 05 1d 3c
       0.031189537 -0.03481975 -0.023794401 0.009583795
000220 1d 1e b9 3d 9b 9d 85 3d ea e4 8f 3d 5a 09 c6 3d
       0.09038947 0.065242015 0.07026084 0.096697524
000230 b7 56 71 bd 4d b4 85 bb a0 04 c7 3d 33 07 74 bb
       -0.05892059 -0.0040803314 0.09717679 -0.0037235736
000240 3d 2c 89 3d 13 04 6a 3d eb 57 c4 bd 63 8a 5a 3d
       0.06697891 0.05713279 -0.095870815 0.053354632
000250 6d 6a 06 bd cd fa b3 3c a0 42 35 bd 80 05 31 3c
       -0.03281634 0.021970177 -0.04425299 0.010804534
000260 ff 47 92 bd 12 7f ae bd ad 0b f9 3c d3 08 b0 bc
       -0.071426384 -0.085203305 0.030401075 -0.021488583
000270 60 83 76 bd 9a 5b 30 bc 5d 56 b6 3d f5 d8 ae 3d
       -0.060183883 -0.010764027 0.08903191 0.08537475
000280 50 9b 95 3d 77 49 2a bd 4d fb ea 3b 67 86 df bb
       0.07305014 -0.041573968 0.0071710707 -0.006821442
000290 ab d2 b7 bd ad 59 90 bd b2 21 a8 bd f8 40 a8 bd
       -0.089757286 -0.07048354 -0.08209552 -0.08215517
0002a0 73 20 7d bd ea bf 0b 3d 67 4d f9 3c d7 58 62 bd
       -0.061798524 0.03411857 0.030432416 -0.055260506
0002b0 b3 94 dd bc 3a 5c db bc 9a 59 fe bc 9a 10 a9 3d
       -0.027048444 -0.026777375 -0.031048585 0.082551196
0002c0 df d3 c9 bd 9a 49 4d b9 6b fe b8 bd c0 f0 55 3c
       -0.09854864 -0.00019577742 -0.090329014 0.013057888
0002d0 72 45 92 bd 4d 6d e6 3b 53 b8 55 bd 07 76 40 bd
       -0.07142152 0.0070320726 -0.05217774 -0.04698756
0002e0 63 c9 6e bd cb c0 8a bd f0 b6 bd 3d 13 f0 2b bd
       -0.058297526 -0.067750536 0.09263408 -0.041977
0002f0 7a a3 93 bd 5d eb b9 bd 4a 50 5f 3d b7 af 85 bd
       -0.07208915 -0.09078095 0.05451993 -0.065276556
000300 60 4b 24 bd 4d 2e a3 bd 1d f0 9e bd 37 8a 34 bd
       -0.040110946 -0.079678155 -0.07760642 -0.044077124
000310 13 24 a8 3c f0 d2 62 bd 00 bc 03 3b ba c6 0f bd
       0.020525014 -0.055376947 0.002010107 -0.03510163
000320 85 91 c2 bd 65 0b 8f 3c 57 94 d3 3d 00 34 2f bd
       -0.09500412 0.017461488 0.10331028 -0.0427742
000330 27 9e 5a 3c 1a d5 a8 bd 7f 14 af 3d fe c2 da 3c
       0.0133433705 -0.08243771 0.08548831 0.026704308
000340 f4 43 6d 3c 2b 1c 23 3d 67 23 f7 bc b8 dd 95 3d
       0.014481533 0.039821785 -0.030168248 0.0731768
000350 a9 35 8a 3d a8 b1 86 bd 96 d1 39 bd ed df 9a bd
       0.06748516 -0.06576854 -0.045365892 -0.07562242
000360 53 da f2 bc 4c f8 69 bd f3 25 ab bc 2d e2 a2 3d
       -0.02964512 -0.05712156 -0.020892119 0.07953296
000370 15 c7 ca 3d 90 98 6c bd 33 ef 74 ba dd dc 8a bd
       0.09901253 -0.057762682 -0.0009343505 -0.067804076
000380 37 18 c0 bd 7a 23 c7 bc 26 a5 b3 3d 3a 65 31 bd
       -0.093796186 -0.024308909 0.08771734 -0.043309428
000390 2a d8 9a bb 17 91 ab bc 2b 86 53 3d 02 d6 96 3d
       -0.004725476 -0.020943208 0.051641624 0.073650375
0003a0 b3 6a 6a bc ed 45 7b 3d a6 d5 70 bd 93 d9 b2 bd
       -0.014307666 0.061345983 -0.0587975 -0.08732905
0003b0 68 b2 29 3d 83 7a 41 3d 3f 93 a2 3d 50 ed b2 bd
       0.041429907 0.047235977 0.07938241 -0.0873667
0003c0 d9 b7 b1 3d cc d2 41 3d ad c2 46 3d 33 0e fd 3c
       0.08677644 0.047320172 0.0485255 0.03089056
0003d0 d0 49 2c 3d a0 ab 9b 3c 54 58 3b bd f8 2c c5 3d
       0.04206258 0.019002736 -0.045738533 0.09627718
0003e0 b3 6f 0e 3d aa 63 14 bd d7 d9 88 3d 32 4d 9d 3d
       0.034774493 -0.03622786 0.06682175 0.076807395
0003f0 be a0 a6 bd 1a b6 a7 bb 86 a7 d1 3d 00 f6 ec bc
       -0.08136128 -0.0051181437 0.10237031 -0.028925896

bias f4 [100]
000000 ef 2d c3 bd 53 ce 8c 3c bc ce 76 3a 71 1a db 3b
       -0.095302455 0.017188227 0.0009414961 0.0066865017
000010 30 a0 b3 3d 13 6c 0e 3e 9d 81 01 bd 68 f1 0b bd
       0.08770788 0.13908415 -0.03161775 -0.03416577
000020 81 1b cb bc 33 12 04 3c e7 9a c1 bc aa c8 45 bd
       -0.024793388 0.00806098 -0.023633434 -0.04828707
000030 0e 8b e0 3d aa 21 1b 3d fa 8f 41 3d d2 ca 6d bd
       0.109640226 0.0378739 0.047256447 -0.058054753
000040 94 14 b9 3d 84 fb 28 3f fe 31 24 3c f5 fe 10 3f
       0.09037128 0.6600878 0.010021685 0.56639034
000050 26 ad 5e bd ad 75 ab 3c a2 88 90 3d 7f 0f 5a 3e
       -0.054364346 0.020930136 0.07057311 0.21294974
000060 4b 4a cb bd a9 bf f1 3b 95 05 05 bd 1a 7e c5 bc
       -0.0992628 0.007377584 -0.032476027 -0.024107981
000070 49 28 7e 3e 1a aa 1c bd 80 8e a3 bc c7 cd 5f 3e
       0.24820055 -0.03824816 -0.01996541 0.21855842
000080 a5 c1 9c bc 22 ad c3 3d 3e 52 90 bd 53 37 4b 3f
       -0.019135306 0.09554507 -0.070469365 0.79381293
000090 45 99 cb bd b2 52 aa 3e d7 97 02 bd 55 95 cb 3d
       -0.09941343 0.33266217 -0.031883087 0.09940592
0000a0 b1 78 b0 3d c7 65 27 3d e2 f3 08 bd ca 43 78 bd
       0.0861677 0.040868547 -0.03343571 -0.060611524
0000b0 6c 2e 98 3e 7b b8 b3 bd 3b d1 f6 bd 97 da 7b bd
       0.29722917 -0.08775421 -0.12051626 -0.06148776
0000c0 a8 82 9a 3e 8e 65 3c 3f 9c 91 a8 3d 7a bd 7e 3d
       0.30177808 0.7359246 0.08230898 0.062192418
0000d0 93 e8 db bc b2 fc b5 3d 8c c8 99 bd 8f 8d 23 3d
       -0.026844298 0.088860884 -0.075089544 0.039929923
0000e0 7f 54 a3 bd 97 d5 86 bd 3d 0f 78 bd 6a e0 30 3f
       -0.07975101 -0.06583708 -0.060561407 0.6909243
0000f0 15 ae 35 3f 47 b1 85 bc 17 2f 2f 3a 34 62 20 3e
       0.70968753 -0.016319884 0.0006682737 0.15662462
000100 e6 26 20 3f a9 dc 28 3d e3 32 a3 bd ef ba 8a bd
       0.62559354 0.041226063 -0.0796869 -0.06773936
000110 d7 a2 a9 bd 5b fd 7d 3d a1 66 50 bc 2e d7 13 3f
       -0.08283012 0.062009197 -0.012719781 0.57750213
000120 5d db 4b 3c 7a 0a 8f bd d9 22 8b bc a0 8e d8 3c
       0.012442437 -0.0698442 -0.01698439 0.026435196
000130 b7 9d 8d bd a7 c6 0e 3e be 97 38 3d 7c 7f 82 3b
       -0.06914847 0.13942967 0.045066588 0.0039824825
000140 ee 75 3a 3f 0e 2c 24 3e 64 9f 29 bd c9 7d 72 bd
       0.72836196 0.1603243 -0.041411772 -0.05920199
000150 3a 99 94 bd 63 4d 7d 3d 0a aa c7 bb 2a 36 7a 3d
       -0.07255788 0.06184138 -0.0060932683 0.06108681
000160 d4 9a 1f bd 51 48 1d 3f 2b f4 a2 bd 9a bc 62 3d
       -0.038966015 0.6143847 -0.079567276 0.055355646
000170 aa a3 16 3f 5b c2 84 3c ca 24 03 3d 8a b2 5e 3e
       0.5884348 0.016205957 0.032017507 0.21747795
000180 80 4b 02 39 8b 2c 98 bd 62 d7 ad 3e a9 04 e4 3c
       0.00012425892 -0.07430371 0.33953387 0.027834253
