MLP_valError_0.017030268907546997_y.pt (torch, 177074 bytes, 11 tensors)

weight f4 [100, 20]
0	0xbe528824	-0.20559746
1	0x3deca35f	0.11554598
2	0xbe272858	-0.16323984
3	0xbe1e4897	-0.15457378
4	0x3dc71456	0.09720676
5	0xbc136533	-0.008996296
6	0x3e155ed8	0.14586961
7	0xbd434c05	-0.04767992
8	0x3e446172	0.19177797
9	0x3e0b2848	0.13589585
10	0xbdeeb893	-0.116562985
11	0xbe569980	-0.20956993
12	0x3dfd5a04	0.12370685
13	0xbe48ab20	-0.19596529
14	0x3e30c26a	0.17261663
15	0x3dd11286	0.10208611
16	0x3ded0a17	0.1157419
17	0xbe44bbee	-0.19212314
18	0xbd6b2342	-0.05740667
19	0x3e54d4d2	0.2078431
20	0xbe14b162	-0.14520791
21	0x3e5d30ea	0.2160069
22	0x3e5f35db	0.21797888
23	0x3e0461e0	0.12927961
24	0xbe24fc99	-0.16111983
25	0x3e2671e0	0.16254377
26	0x3e2e6139	0.17029275
27	0xbd893517	-0.06699579
28	0xbdfb4c38	-0.12270397
29	0xbe6260ea	-0.22107282
30	0xbca361d2	-0.019944105
31	0xbd9a275b	-0.07527038
32	0xbe3736b5	-0.17891963
33	0xbd3d5754	-0.04622586
34	0xbe3a4311	-0.18189646
35	0xbd70b142	-0.058762796
36	0x3e4483a1	0.19190837
37	0x3d53f2c7	0.051745202
38	0xbe5bdccb	-0.21470945
39	0xbd66fd76	-0.056394063
40	0x3dfb2d99	0.122645564
41	0xbe08348e	-0.13301298
42	0x3e2cd4b2	0.16878012
43	0xbc388c21	-0.011263878
44	0xbd9296b6	-0.07157652
45	0xbe013ae1	-0.12620117
46	0x3c353dcb	0.011062096
47	0x3ecc4c7b	0.399021
48	0x3c9c8e92	0.019110952
49	0x3dc03bee	0.09386431
50	0x3cc46cf0	0.023977727
51	0x3e2928cb	0.16519468
52	0x3ccfcdce	0.02536669
53	0x3d2bdf49	0.04196099
54	0xbe1130bf	-0.14178751
55	0x3d73b367	0.059497263
56	0xbe932957	-0.28742477
57	0xbbbbb1e8	-0.005727995
58	0x3e4b9e01	0.19884492
59	0xc106b51c	-8.419216
60	0x3db5accb	0.08870848
61	0x3da79a22	0.081836954
62	0x3e1e8fbd	0.1548452
63	0xbd7714c5	-0.06032254
64	0x3e28e8ef	0.16495107
65	0xbc79dd90	-0.0152505785
66	0x3d5d37ea	0.054008402
67	0x3c94d8a4	0.018169709
68	0x3e211f8c	0.1573469
69	0xbe14a53c	-0.14516157
70	0x3e33b4ca	0.17549434
71	0xbe292f4c	-0.16521949
72	0xbe8c3fba	-0.2739237
73	0xbd550b3c	-0.052012667
74	0x3d7e47a3	0.062080037
75	0xbc8f4a43	-0.017491465
76	0x3c9884e3	0.018618053
77	0xbdf02b35	-0.11726991
78	0xbea15821	-0.3151255
79	0x40352327	2.8302705
80	0x3e2a8ddc	0.16655678
81	0xbe103584	-0.14082915
82	0xbd66cd1b	-0.056347948
83	0x3d4cacd4	0.04996951
84	0xbd776093	-0.060394835
85	0xbdbce2ea	-0.09222968
86	0x3e26cfe3	0.1629024
87	0xbe58a3df	-0.21156262
88	0x3c697934	0.0142500885
89	0xbe06efbc	-0.13177389
90	0x3d2474be	0.040150397
91	0xbdd306f8	-0.103040636
92	0xbe43277f	-0.19058035
93	0x3d0546c3	0.032538187
94	0x3e37eb85	0.17960937
95	0xbdd13035	-0.10214273
96	0x3d30cf8d	0.043166686
97	0x3e3440cc	0.17602843
98	0xba87feaf	-0.0010375584
99	0xb9c2b10f	-0.00037134482
100	0xbc38f22b	-0.011288206
101	0xbd873aaa	-0.06602986
102	0x3e44b83d	0.19210906
103	0xbdaa8921	-0.083269365
104	0xbd8317dc	-0.06401035
105	0x3dea0999	0.11427612
106	0x3cd7a8e9	0.02632566
107	0x3d528034	0.051391795
108	0x3e5bb84a	0.2145702
109	0x3e0f7459	0.14009227
110	0xbcb2d12d	-0.021828258
111	0x3ad802db	0.0016480343
112	0xbd4f90ff	-0.05067539
113	0x3e11bf5e	0.14233157
114	0x3d8f3f96	0.0699455
115	0x3e2f8f16	0.17144427
116	0xbe149c8d	-0.14512844
117	0xbe05332a	-0.13007799
118	0x3dc4cba9	0.096091576
119	0xbdeae4c2	-0.11469413
120	0x3e6ea7d4	0.23306209
121	0xbd670930	-0.056405246
122	0xbd3b5ffb	-0.04574583
123	0xbe8ad17c	-0.2711295
124	0xbcee8634	-0.029116727
125	0xbbe6a1cb	-0.00703833
126	0x3e230177	0.15918528
127	0x3f04305e	0.516363
128	0x3de2a78f	0.110671155
129	0x3e7214b0	0.23640704
130	0xbd8bf17d	-0.068331696
131	0x3e1dd6cd	0.15413971
132	0xbcd768c6	-0.026295077
133	0x3e057a7b	0.13035004
134	0xbf44e301	-0.7690888
135	0xbc84cec7	-0.01621188
136	0xbddeabc4	-0.108726054
137	0x3d84fa87	0.06493097
138	0x3e05ba17	0.13059269
139	0xc15624f8	-13.384026
140	0xbe66d225	-0.22541101
141	0xbe8ac1da	-0.27101022
142	0x3e1be061	0.15222313
143	0xbdb58c9c	-0.0886471
144	0xbe691456	-0.22761664
145	0x3e1c8d60	0.15288305
146	0x3ddb97ce	0.10722314
147	0x3e23540b	0.15950029
148	0xbe489f56	-0.19592032
149	0x3d3d036d	0.046145845
150	0x3ccf4c77	0.025305016
151	0x3d82f6d7	0.06394737
152	0x3e577fe9	0.21044888
153	0x3c79def9	0.015250915
154	0x3dcbf9dd	0.09959767
155	0x3c70a87a	0.014688605
156	0x3e084f4f	0.13311504
157	0x3b7fc4c8	0.0039027203
158	0xbe22aee1	-0.15887024
159	0x4161164b	14.067943
160	0x3d8e71aa	0.069552734
161	0xbd059cf3	-0.03262038
162	0x3e8cb6e7	0.27483293
163	0x3e8ef7b8	0.2792337
164	0xbb9097f2	-0.0044126445
165	0xbdec508e	-0.11538802
166	0x3d91e665	0.071240224
167	0x3deda634	0.11603966
168	0x3d868ad9	0.06569452
169	0xba814b11	-0.000986429
170	0xbe20a484	-0.15687758
171	0x3e433dcb	0.19066541
172	0xbd2016f5	-0.039084394
173	0xbdfdcab2	-0.12392177
174	0x3e38e821	0.180573
175	0x3e5adb70	0.21372771
176	0xbe81bf0e	-0.25341076
177	0x3dcf0a56	0.10109393
178	0xbd3135a6	-0.043264054
179	0x409c5894	4.8858128
180	0xbd411830	-0.047142208
181	0xbe0a5ac5	-0.13511188
182	0xbebb6c44	-0.36606038
183	0xbe9dc54a	-0.30814582
184	0x3d86df3f	0.065855496
185	0xbb7012c4	-0.003663228
186	0xbd8d5ffd	-0.06903074
187	0x3d6fa86d	0.058510233
188	0x3e49c6e7	0.19704781
189	0x3d289984	0.04116203
190	0x3bbfc4b0	0.0058523044
191	0xbd168be8	-0.03675452
192	0xbe7ecbc5	-0.2488242
193	0x3d9b097d	0.07570169
194	0xbe88742f	-0.2665114
195	0xbcc81979	-0.024426209
196	0x3d4acdb0	0.049512565
197	0xbd08819d	-0.033326734
198	0x3d9c4306	0.07629971
199	0xc1077b98	-8.467674
200	0x3d722081	0.05911303
201	0x3e26545e	0.16243121
202	0xbdefd423	-0.11710384
203	0xbe1697af	-0.147063
204	0xbe6178b1	-0.22018696
205	0x3e472263	0.19446711
206	0x3d11fc94	0.035641268
207	0x3b18cf1d	0.0023316809
208	0xbdf4aa67	-0.11946564
209	0xbe581ec7	-0.2110549
210	0xbe321aa1	-0.1739297
211	0x3b8aa922	0.004231588
212	0x3dacf526	0.08445196
213	0xbc5378fe	-0.012907265
214	0xbd7d3a59	-0.061823223
215	0xbe09a9f2	-0.13443735
216	0x3e29d845	0.16586407
217	0xbd6521d9	-0.055940483
218	0xbdb68247	-0.08911567
219	0x3dc92978	0.09822363
220	0x3dea975b	0.1145465
221	0xbd6221cc	-0.055208012
222	0x3d0fa7be	0.03507208
223	0x3ecb7459	0.39737204
224	0xbe073140	-0.13202381
225	0xbe9a1a11	-0.30098012
226	0x3e14650a	0.14491668
227	0x3f04aae2	0.51823246
228	0xbcabb89c	-0.020962052
229	0x3db1a6d0	0.08674395
230	0x3e0a3565	0.13496931
231	0x3e402506	0.18764123
232	0xbdac812f	-0.08423077
233	0x3c42ae80	0.011882424
234	0x3e505067	0.20343171
235	0x3ce6674f	0.028125433
236	0xbe43095d	-0.1904654
237	0xbd74ce7c	-0.05976723
238	0xbea267f7	-0.31719944
239	0x410e14c8	8.880074
240	0xbe8d7d55	-0.27634683
241	0xbdbb68fc	-0.091508836
242	0x3de2a851	0.1106726
243	0x3e3e5b28	0.18589461
244	0xbd6aacd6	-0.057293735
245	0xbcaefcf9	-0.021360861
246	0xbd52db1b	-0.051478487
247	0x3d0256f5	0.03182121
248	0x3c440ab3	0.0119654415
249	0x3c433b41	0.011915983
250	0x3dc803b2	0.0976633
251	0xbd8a6c37	-0.067589216
252	0x3c6c124c	0.014408659
253	0xbdf92e59	-0.12167043
254	0x3e25f9b1	0.16208531
255	0x3e1e1fae	0.15441772

bias f4 [100]
0	0xbe23b538	-0.15987098
1	0xbcf24660	-0.029574573
2	0x3ea7d87d	0.32782355
3	0xbd4af66a	-0.049551405
4	0x3db37d33	0.08764114
5	0x3dbbc713	0.0916883
6	0x3ee83222	0.45350748
7	0xbf030b43	-0.5118906
8	0xbe8d4ed5	-0.27599207
9	0x3e0765b2	0.13222387
10	0x3d4a439f	0.049380895
11	0xbd78c684	-0.060736194
12	0xbdd44259	-0.10364217
13	0xbe1dee97	-0.15423046
14	0x3d569652	0.05238945
15	0x3e0ed382	0.13947871
16	0xbe9e7673	-0.30949745
17	0xbe9cd32a	-0.30629855
18	0xbdb48055	-0.0881354
19	0xbbbf972c	-0.0058468785
20	0x3e3aacba	0.18229952
21	0x3bd6fa20	0.006560579
22	0x3e50fd51	0.20409133
23	0x3d046b59	0.032328937
24	0x3e6f2b78	0.23356426
25	0xbca26fbc	-0.01982867
26	0x3ee80f2b	0.45324072
27	0xbe33152e	-0.17488548
28	0x3e4553e8	0.19270289
29	0xbe391d99	-0.18077697
30	0xbdf3a2a1	-0.118962534
31	0x3e159e2b	0.14611118
32	0x3e837608	0.25675988
33	0x3ed9cdb7	0.4253976
34	0x3dff657e	0.1247053
35	0xbe6bf3f2	-0.23042277
36	0xbe2a47b4	-0.16628915
37	0x3b81eed2	0.003965237
38	0xbdcdb1b9	-0.100436635
39	0xbee36366	-0.44411772
40	0x3e09bcbb	0.13450901
41	0x3cbd1b5d	0.023084337
42	0x3da941e2	0.08264519
43	0xbe7e78c2	-0.24850753
44	0xbde0090c	-0.109392256
45	0xbdd14f9f	-0.10220265
46	0x3df697bf	0.12040662
47	0xbe2fa056	-0.17151007
48	0x3e0fdc43	0.14048867
49	0x3dcb7964	0.09935263
50	0xbdc9d89e	-0.098557696
51	0xbeb597ce	-0.3546738
52	0xbe356b6d	-0.17716761
53	0x3dd01c4a	0.10161646
54	0x3e52531b	0.20539515
55	0xbe316e7a	-0.173273
56	0x3e623b14	0.22092849
57	0xbdac0353	-0.083990715
58	0xbeb4d5b3	-0.3531929
59	0x3d2b7c07	0.04186633
60	0x3e19339d	0.14961095
61	0x3e8b5723	0.27214918
62	0xbd8247f6	-0.06361382
63	0xbcfb501e	-0.030677851
64	0xbec73f14	-0.38915312
65	0x3e31457d	0.17311664
66	0xbdcf5482	-0.101235405
67	0xbf0829c2	-0.5318872
68	0x3e529775	0.20565589
69	0xbe57158e	-0.21004316
70	0xbdbfee8f	-0.09371673
71	0x3e17eec2	0.14837173
72	0xbddee073	-0.10882654
73	0x3f032bf9	0.5123897
74	0xbca061fc	-0.019577973
75	0x3e2f342b	0.17109744
76	0xbe4c3ef6	-0.19945893
77	0x3e8afdfe	0.27146906
78	0xbe752f37	-0.23943792
79	0x3d58a582	0.052892216
80	0xbe3812b9	-0.17975892
81	0x3d94fb4c	0.072744936
82	0xbdc0c0c0	-0.09411764
83	0xbe3650d6	-0.17804274
84	0x3eab9344	0.33510792
85	0xbd381189	-0.044938598
86	0x3de6fd5d	0.11278794
87	0x3e50bed3	0.20385294
88	0xbe60e7a4	-0.21963364
89	0x3e884928	0.26618314
90	0x3ea1a04e	0.31567615
91	0x3d238afe	0.039927475
92	0x3e60b56f	0.21944211
93	0xbe06dec2	-0.13170913
94	0xbebee054	-0.37280524
95	0x3ef9c8eb	0.487861
96	0xbd9ba08e	-0.07598983
97	0xbe5bd85c	-0.21469253
98	0x3e07e1fe	0.13269803
99	0xbe4569ac	-0.19278592

weight f4 [100, 100]
0	0x3dc76282	0.09735586
1	0x3dc1162a	0.094280556
2	0xbd33c842	-0.043892153
3	0xbdbb0e0f	-0.09133541
4	0xbd2446b7	-0.0401065
5	0x3daf9610	0.08573544
6	0xbcb9b681	-0.022670032
7	0xbdbf1be5	-0.09331492
8	0xbda5a061	-0.080872305
9	0xbdd83eb7	-0.10558837
10	0x3d96b1aa	0.073581055
11	0xbd57a0a5	-0.052643437
12	0x3c4d551a	0.012532497
13	0x3c5b28aa	0.013376394
14	0xbd4aa5a7	-0.049474385
15	0xbdb3698a	-0.08760364
16	0xbae6119a	-0.0017552853
17	0xbcf6b551	-0.030115755
18	0x3daf49f0	0.08559024
19	0xbd6f0a50	-0.058359444
20	0x3c6599da	0.014013732
21	0x3ce49ed3	0.027907765
22	0xbc461667	-0.012090302
23	0xbbd1639a	-0.0063900473
24	0xbde44353	-0.111456536
25	0xbbf18333	-0.0073703765
26	0xbdf275c4	-0.11838868
27	0xbd514847	-0.05109432
28	0xbd2bd7a3	-0.041953694
29	0xbcaec42d	-0.021333778
30	0xbd38e2a3	-0.045138013
31	0xbd338113	-0.043824267
32	0xbe046430	-0.12928843
33	0x3cb7a632	0.022418115
34	0x3c141140	0.009037316
35	0xbe0615dc	-0.13094276
36	0x3db673b0	0.089087844
37	0x3c077287	0.008267052
38	0x3d7e14c0	0.062031507
39	0xbda197c5	-0.07890276
40	0x3d7ff2d3	0.062487435
41	0x3d017c80	0.031612873
42	0x3d4ed747	0.050498273
43	0x3d48891d	0.048958886
44	0x3c45a3c0	0.012062967
45	0xbc92b6ad	-0.017909372
46	0x3d70717d	0.05870198
47	0xbc7ae15d	-0.01531252
48	0xbdc5008a	-0.096192434
49	0xbdaca6fb	-0.084302865
50	0xbd811ae0	-0.06303954
51	0xbd8aeb97	-0.067832164
52	0x3d0be92a	0.03415791
53	0x3d76533a	0.060137965
54	0xbcf0790d	-0.029354597
55	0x3c8a187a	0.016857374
56	0xbd2c91c2	-0.042131193
57	0xbd86efa3	-0.06588676
58	0xbd966373	-0.07343187
59	0xbb330200	-0.0027314425
60	0x3b15649a	0.002279556
61	0xbd9f3a19	-0.07774753
62	0x3da0ace8	0.07845479
63	0x3cca33c7	0.024682892
64	0xbc1f7a39	-0.00973373
65	0xbdd6e336	-0.10492556
66	0xbd98ac1b	-0.074547015
67	0xbd5f26be	-0.054480307
68	0x3c9d70ad	0.019218767
69	0x3bfabd9f	0.007651999
70	0x3d41cf0a	0.04731659
71	0xbcd0769a	-0.025447179
72	0xbd205d31	-0.039151374
73	0x3b2945d9	0.0025828986
74	0xbd8ae278	-0.06781477
75	0xbcc5ae27	-0.024130894
76	0xbc7a1967	-0.015264845
77	0xbda06752	-0.07832207
78	0x3be57ba0	0.0070032626
79	0x3d5fc337	0.05462953
80	0x3db4f00d	0.088348486
81	0x3dcb55d0	0.09928477
82	0xbdccfc5e	-0.10009073
83	0xbcc37160	-0.023857772
84	0xbde29dcd	-0.11065254
85	0xbd570a9a	-0.052500345
86	0xbd24f75d	-0.040274967
87	0x3d90005b	0.07031318
88	0x3beaffb3	0.007171595
89	0x3c397c2d	0.01132111
90	0x3c053cd8	0.008132182
91	0x3d86d750	0.06584036
92	0xbd838e25	-0.06423596
93	0xbb198100	-0.0023422837
94	0x3b347011	0.0027532617
95	0xbd8d7bf5	-0.069084086
96	0x3b6b4b9a	0.0035903216
97	0xbce696fd	-0.028148169
98	0xbc85fc27	-0.016355587
99	0xbcc3fb9a	-0.023923684
100	0x3a142267	0.00056508783
101	0x3d571480	0.052509785
102	0x3d6c4281	0.05768061
103	0x3d9e97c7	0.07743793
104	0x3d6d5ad7	0.05794796
105	0x3d31295d	0.043252338
106	0x3c3e9073	0.011631119
107	0x3ca11bf9	0.019666659
108	0x3d84f248	0.06491524
109	0xbdf21003	-0.1181946
110	0x3d9a1db2	0.07525195
111	0xbdf0a450	-0.1175009
112	0x3d3a4b83	0.04548217
113	0xbdb5242f	-0.08844792
114	0x3dc5360b	0.096294485
115	0x3d1f9ad7	0.038966026
116	0xbdabddd8	-0.08391923
117	0xbda9175d	-0.08256409
118	0xbd0241ba	-0.031800963
119	0xb8ddd333	-0.0001057744
120	0x3d9e52ef	0.07730662
121	0x3db09bb7	0.0862345
122	0x3d92977d	0.071578
123	0x3d712a2d	0.058878113
124	0xbdc2fcad	-0.0952085
125	0x3db3fd72	0.08788575
126	0xbdc233f2	-0.09482564
127	0x399c5e67	0.00029824974
128	0xbd1f0a8d	-0.03882842
129	0x3da1b85a	0.078964904
130	0xbd862478	-0.065499246
131	0x3da52fd7	0.08065765
132	0xbd9e3cb5	-0.07726423
133	0x3d564305	0.05231001
134	0xbb762700	-0.0037559867
135	0x3cfd42f8	0.030915722
136	0x3c63818d	0.013885868
137	0xbc3d50b6	-0.0115548875
138	0xbd8c35d5	-0.06846205
139	0xbd8cdfa8	-0.068785965
140	0xbdc9b28a	-0.09848507
141	0xbdb817bb	-0.08988901
142	0x3d70311d	0.058640588
143	0xbd250cdf	-0.040295478
144	0xbd2cbee3	-0.04217423
145	0xbc88b767	-0.016689016
146	0xbd8c0cd2	-0.06838383
147	0x3d26328d	0.040575553
148	0xbd505cad	-0.050869633
149	0xbc736b8d	-0.014857185
150	0xbc8eb0d3	-0.0174183
151	0xbaf4327d	-0.0018630769
152	0xbc978760	-0.018497169
153	0x3d47ecb0	0.048809707
154	0xbd9a5757	-0.0753619
155	0xbdbedf85	-0.09319977
156	0xbd87d2c0	-0.06631994
157	0xbe042553	-0.12904863
158	0xbd93e653	-0.07221665
159	0x3d2114c0	0.03932643
160	0xbd1e7b9d	-0.038692106
161	0xbd9fe71d	-0.07807753
162	0xbb668400	-0.0035173893
163	0xbd95db50	-0.07317221
164	0xbd891792	-0.06693949
165	0xbc8e64f5	-0.017382124
166	0xbdbd5e5f	-0.092465155
167	0x3cf50964	0.029911704
168	0xbc2e370d	-0.010633242
169	0xbdb54b4e	-0.08852254
170	0xbcce523a	-0.025185693
171	0x3b693433	0.0035584092
172	0x3cc970cd	0.02458992
173	0xbdad0ce3	-0.084497236
174	0x3d302e7d	0.043013085
175	0x3d80d76f	0.06291091
176	0x3d50572d	0.050864387
177	0x3d9c4afd	0.076314904
178	0xbd88b8bd	-0.06675861
179	0x3bef521a	0.0073034884
180	0xbd42c9ca	-0.047555722
181	0xbd5cb707	-0.053885486
182	0xbdee2178	-0.116274774
183	0x3db0f3da	0.08640261
184	0xbda82bc4	-0.08211473
185	0xbd8a3c65	-0.067498006
186	0xbd736977	-0.05942675
187	0xbd474b17	-0.048655596
188	0x3d1f4917	0.038888063
189	0x3cf1808c	0.029480241
190	0xbdb75b10	-0.08952916
191	0x3d212ee3	0.039351355
192	0x3d950d3b	0.07277914
193	0x3db311f8	0.08743662
194	0xbd9925a8	-0.074778855
195	0x3c0df3b9	0.008664065
196	0xbdc32a55	-0.095295586
197	0xbd9c2be2	-0.076255575
198	0xbd93cf3b	-0.072172605
199	0x3da75e5d	0.08172295
200	0xbd9df46b	-0.07712635
201	0xbdc1fa08	-0.09471518
202	0x3d827920	0.06370759
203	0xbe1298b5	-0.14316066
204	0x3c99a6f3	0.018756365
205	0x3ccf4ac7	0.025304211
206	0xbcd1b5ef	-0.025599448
207	0xbde6b484	-0.112648994
208	0x3d7cf785	0.06175949
209	0xbd2bcf4e	-0.041945748
210	0xbba1c61a	-0.0049369456
211	0x3d858def	0.06521212
212	0x3845f7b5	4.7199155e-05
213	0xbc5c6397	-0.013451478
214	0x3dc69f07	0.09698301
215	0xbdc6b50a	-0.09702499
216	0x3b89fe42	0.004211218
217	0xbdb21323	-0.08695056
218	0xbbfb6d00	-0.007672906
219	0xbc17b1f4	-0.009258736
220	0xbd405933	-0.046960067
221	0xbda9771b	-0.08274671
222	0xbd5a8070	-0.053345144
223	0x3c9fd087	0.019508613
224	0xbdfd8b74	-0.12380114
225	0x3d21939a	0.039447404
226	0xbb1bd719	-0.0023779331
227	0x3d303b2a	0.043025173
228	0x3d8af68f	0.067853086
229	0xbdca56f2	-0.09879865
230	0x3da74b1b	0.08168622
231	0xbd262727	-0.040564682
232	0x3d49f88d	0.049309302
233	0x3d70f921	0.058831338
234	0xbdfeab64	-0.12435034
235	0x3caa4b5d	0.02078789
236	0xbdd66bdd	-0.10469792
237	0xbb97bbfb	-0.0046305633
238	0xbda3cf90	-0.07998574
239	0xbe0a6909	-0.1351663
240	0xbcdff787	-0.02733971
241	0xbdad68af	-0.084672324
242	0xbd42435a	-0.047427513
243	0xbe01890d	-0.12649937
244	0x3d1c1067	0.03810158
245	0x3d84cbc5	0.064841785
246	0x3da3f898	0.080064
247	0xbdfd206c	-0.123596996
248	0xbce9d640	-0.028544545
249	0x3d818103	0.06323435
250	0x3c87993a	0.016552556
251	0xbc5b1b78	-0.013373248
252	0x3ce241e0	0.027619302
253	0x3dbae322	0.091253534
254	0x3d3a3587	0.045461204
255	0xbd88e63a	-0.06684537

bias f4 [100]
0	0xbcf36537	-0.029711349
1	0xbd4e93a3	-0.050433766
2	0xbca038b3	-0.019558286
3	0xbe0c823c	-0.13721555
4	0xbd2ca0ea	-0.042145647
5	0xbd271775	-0.040793855
6	0xbcb7e7ad	-0.022449339
7	0x3cc0f0a3	0.023552245
8	0xbd599d83	-0.05312873
9	0xbe01990f	-0.12656043
10	0x390b22bf	0.00013269017
11	0xbdbb1998	-0.09135741
12	0xbdaa52db	-0.08316585
13	0x3a93ca94	0.0011275583
14	0x3edd756f	0.43253657
15	0xbd4cccb9	-0.049999926
16	0xbcbb079e	-0.02283078
17	0x3e3ca7e6	0.18423423
18	0x3d01395c	0.031548843
19	0x3d386f66	0.045028113
20	0xbddfc71c	-0.10926649
21	0xbd3e86fd	-0.046515454
22	0xbd7340f8	-0.05938813
23	0x3c6ebb3d	0.014571008
24	0xbdd14744	-0.10218671
25	0x3d104bb7	0.035228457
26	0xbe17f182	-0.14838222
27	0xbd1d33da	-0.038379528
28	0xbd101053	-0.035171818
29	0xbd8b5d91	-0.06804956
30	0xbefaeccc	-0.49008787
31	0x3ccec0a4	0.025238343
32	0x3c58f3c7	0.013241715
33	0xbc7ab64f	-0.015302255
34	0xbdec3017	-0.1153261
35	0x3caa5da0	0.020796597
36	0xbda11314	-0.07864967
37	0xbdcd4304	-0.10022548
38	0xbd720611	-0.059087817
39	0xbdd01149	-0.10159547
40	0xbddb090e	-0.106950864
41	0x3cdfaf79	0.027305352
42	0x3ccca390	0.024980336
43	0xbcd61a49	-0.02613558
44	0x3be6b3e7	0.007040489
45	0xbd34dfcd	-0.044158746
46	0xbdeb8607	-0.11500173
47	0x3c63d513	0.013905781
48	0xbdba55f5	-0.09098426
49	0xbcc40010	-0.023925811
50	0x3db4aaa5	0.0882161
51	0xbcd6bbc8	-0.026212588
52	0xbd8aecf3	-0.06783476
53	0xbd49696c	-0.049172804
54	0x3dacf330	0.08444822
55	0xbd509ccd	-0.050930787
56	0xbdc43471	-0.09580315
57	0xbdd9f5f5	-0.10642616
58	0x3be33e9b	0.0069349534
59	0x3c1fd3dd	0.009755102
60	0xbc8e080c	-0.017337821
61	0xbd9c3f10	-0.07629216
62	0x3cb7483d	0.022373313
63	0xbc856b6d	-0.016286576
64	0xbce12287	-0.027482284
65	0xbdb88cdb	-0.09011241
66	0xbe28de35	-0.16491015
67	0xbd6358bb	-0.05550454
68	0x3b8a6187	0.004223052
69	0x3d557541	0.052113775
70	0xbe8ef630	-0.279222
71	0xbe30ffcb	-0.17285077
72	0x3d4710de	0.04860007
73	0xbd838f52	-0.064238206
74	0x3e986172	0.29761845
75	0xbb0d34f6	-0.002154646
76	0x3e04658d	0.12929364
77	0xbe7a5e2e	-0.24449989
78	0x3eb8a9dd	0.36067095
79	0xbc95d8ce	-0.018291857
80	0xbdb61d18	-0.08892268
81	0xbda6538b	-0.08121403
82	0xbdacdf50	-0.08441031
83	0xbdacc926	-0.084368035
84	0xbe09e4cb	-0.13466184
85	0x3cbfb2f5	0.023400763
86	0x3f0b8f4a	0.54515517
87	0x3d8a7cf0	0.06762111
88	0x3e39bdc8	0.18138802
89	0xbd3f192d	-0.04665487
90	0xbe8b2678	-0.27177787
91	0xbd8a74ca	-0.06760557
92	0x3e4ee0ea	0.20202985
93	0xbc3afac4	-0.011412326
94	0xbe0eb6d2	-0.13936928
95	0xbddda6de	-0.10822843
96	0xbefeecb4	-0.49789965
97	0xbcc02b01	-0.023458006
98	0xbcebd4e0	-0.02878803
99	0x3c3c8f7f	0.0115088215

weight f4 [100, 100]
0	0x3b694433	0.0035593628
1	0xbd126bc7	-0.035747316
2	0x3dd7b4ef	0.10532557
3	0xbc26e773	-0.010187018
4	0x3caea08d	0.021316791
5	0x3cc984a2	0.024599377
6	0xbd1122ba	-0.03543351
7	0x3dad7190	0.08468926
8	0xbd8ad342	-0.067785755
9	0x3d7a475d	0.061103214
10	0xbcaddc80	-0.021223307
11	0x3cd10c60	0.025518596
12	0xbd84dcea	-0.064874485
13	0x3c8e2ef1	0.017356368
14	0x3ec0f301	0.37685397
15	0xbd0ff4a3	-0.035145413
16	0x3d927183	0.07150557
17	0xbebd377e	-0.369564
18	0xbdcb11fd	-0.0991554
19	0xbd8bdbc6	-0.06829028
20	0xbd27e82f	-0.040992912
21	0xbd24ec08	-0.04026416
22	0xbdcf8089	-0.10131938
23	0xbd84f24b	-0.06491526
24	0x3d02f26a	0.031969465
25	0xbc9a2980	-0.018818617
26	0x3d77688c	0.060402438
27	0x3cdff0d1	0.02733651
28	0xbd9e0f79	-0.07717795
29	0x3dbbff4e	0.09179555
30	0x3e22a0c7	0.15881644
31	0x3d3a5fc1	0.045501474
32	0xbdaab62f	-0.0833553
33	0xbd5f96c5	-0.054587144
34	0x3db5290f	0.08845722
35	0xbd50edd9	-0.05100808
36	0xbda526d0	-0.080640435
37	0x3b60511c	0.0034228032
38	0x3d1d02b6	0.038332663
39	0x3d942503	0.07233622
40	0xbd581def	-0.052762922
41	0x3c2611a3	0.010136041
42	0x3d388443	0.04504801
43	0x3d1552a9	0.036455784
44	0xbc8a820d	-0.016907716
45	0x3d6acb3b	0.057322722
46	0x3dac8300	0.08423424
47	0x3da2fda0	0.079585314
48	0x3c8725b7	0.016497476
49	0x3dc56182	0.09637739
50	0xbe94f327	-0.2909176
51	0xbdaa2e3f	-0.08309602
52	0x3da51b10	0.080618024
53	0xbe1c49f8	-0.15262592
54	0x3e2c5358	0.16828668
55	0xbdb3eec0	-0.08785772
56	0xbd972bd5	-0.07381407
57	0x3c4bc6b1	0.012437508
58	0xbc90f785	-0.017696152
59	0xbefcdd24	-0.49387467
60	0x3d0f800d	0.035034228
61	0x3d8af20b	0.06784447
62	0xbd804a1d	-0.06264136
63	0x3d9f2cbf	0.077722065
64	0xbd7d7243	-0.061876547
65	0xbc55de5a	-0.013053501
66	0xbedfcbba	-0.4371012
67	0xbd5ca1a5	-0.053865094
68	0x3d82e08d	0.06390486
69	0x3ccdfccd	0.025144959
70	0x3d820e64	0.06350401
71	0x3dd8e1c5	0.10589937
72	0xbd3b29e7	-0.045694258
73	0x3d7cdc87	0.06173375
74	0xbeb49c78	-0.35275626
75	0xbcb07ad9	-0.021542953
76	0xbcf6b187	-0.030113949
77	0xbe67a76b	-0.22622459
78	0x3e43c958	0.19119775
79	0xbcab6777	-0.02092336
80	0xbd5f3dc0	-0.05450225
81	0x3bc069ac	0.005871972
82	0xbd994b18	-0.07485026
83	0xbd803cec	-0.0626162
84	0xbb915326	-0.004434961
85	0xbcfdac62	-0.030965988
86	0xbdcee44b	-0.10102137
87	0xbd9fa176	-0.07794468
88	0x3d6bdf03	0.057585727
89	0xbd87ebca	-0.0663677
90	0x3f08c13d	0.5341986
91	0x3d8827d0	0.06648219
92	0xbec8f349	-0.39248112
93	0x3d025271	0.031816904
94	0xbce33e66	-0.027739715
95	0xbcff36b6	-0.031154018
96	0xc0066317	-2.099798
97	0xbda9b94a	-0.08287294
98	0xbd501d1c	-0.05080901
99	0x3d019585	0.031636734
100	0x3da49403	0.080360435
101	0xbd3619a3	-0.044458043
102	0x3d8bc3bd	0.068244435
103	0xbdbb8373	-0.09155931
104	0x3cf368b1	0.029713007
105	0xbd8430b9	-0.064546056
106	0x3d717bd3	0.05895598
107	0xbc20d95a	-0.009817446
108	0x3dba7fad	0.091063835
109	0xbbdc6bb3	-0.006726706
110	0x3d87577d	0.06608484
111	0x3ca1c3d3	0.019746697
112	0xbd6defca	-0.05809001
113	0xbcf1a8cd	-0.029499436
114	0x3c808527	0.015688492
115	0x3d4e51e7	0.050371077
116	0xbd847a4b	-0.06468638
117	0xbde61686	-0.11234765
118	0xbd82f00e	-0.06393443
119	0xbd567b9a	-0.05236397
120	0xbc5e3aa7	-0.0135637885
121	0xbbbd4e80	-0.00577718
122	0xbdc3e8f0	-0.09565914
123	0xbd7f0883	-0.062263977
124	0x3db7428b	0.08948239
125	0x3d97a42b	0.074043594
126	0xbe3f687a	-0.18692198
127	0xbd42175e	-0.047385566
128	0xbda8c259	-0.08240194
129	0x3da48f70	0.08035171
130	0xbd453722	-0.048148282
131	0x3dabe82f	0.08393895
132	0xbd3011e7	-0.042985823
133	0x3da0cae2	0.07851197
134	0xbdbcfd73	-0.09228029
135	0xbd75cf73	-0.060012292
136	0xbd44c10a	-0.04803566
137	0x3d639ea3	0.05557121
138	0xbd3bf1c3	-0.04588486
139	0xbc211227	-0.009830988
140	0x3cbe2354	0.023210205
141	0xbd697133	-0.05699272
142	0xbd869b30	-0.065725684
143	0xbc3acfb3	-0.011402058
144	0xbd034a30	-0.032053173
145	0x3ca29327	0.019845558
146	0xbd819b5d	-0.06328461
147	0x3da26798	0.07929915
148	0x3d2e7017	0.042587366
149	0xbc9fb613	-0.019496
150	0xbc2339f5	-0.0099625485
151	0x3dc07340	0.09396982
152	0x3d86cf0a	0.06582458
153	0xbdbd82c5	-0.09253458
154	0x3c5d9acf	0.013525679
155	0xbca7384d	-0.020412588
156	0x3cdb4047	0.026764048
157	0x3cce151a	0.025156546
158	0xbc0639a5	-0.008192454
159	0xbdf42694	-0.11921421
160	0x3c2a0ff3	0.010379779
161	0xbd3e72b3	-0.046496104
162	0xbdc69fa7	-0.0969842
163	0x3d6756d3	0.056479286
164	0xbdba0d0b	-0.09084519
165	0xbd504d20	-0.050854802
166	0x3ce9046a	0.028444488
167	0x3d0113d7	0.03151306
168	0xbc455f27	-0.012046612
169	0xbdacd30d	-0.08438692
170	0xbd5a8a66	-0.053354643
171	0x3bd40996	0.0064708693
172	0x3dc65dd0	0.09685862
173	0xbc8d3107	-0.017235292
174	0xbe0ce314	-0.13758498
175	0xbcc2b536	-0.023768049
176	0xbde85b57	-0.11345547
177	0x3d330521	0.043706063
178	0xbd952ac0	-0.072835445
179	0x3d8f71fa	0.07004161
180	0xbb9a03b3	-0.004700148
181	0xbc65897f	-0.014009832
182	0x3d963f5f	0.07336306
183	0xbc241d8d	-0.010016811
184	0xbd9ed255	-0.077549614
185	0xbdd3c055	-0.10339419
186	0xbda72217	-0.08160799
187	0xbc1e7db3	-0.009673524
188	0xbdd352b9	-0.103185125
189	0xbd96dd30	-0.07366407
190	0x3d06300c	0.032760665
191	0xbd60d610	-0.054891646
192	0x3d5866a2	0.052832253
193	0x3d77a613	0.060461115
194	0x3cab8369	0.020936685
195	0xbc0b33d7	-0.008496246
196	0x3bb13ff6	0.005409236
197	0x3d157c57	0.036495533
198	0xbdc7465b	-0.09730216
199	0x3d900c73	0.070336245
200	0x3d951b4b	0.07280596
201	0x3dbb05f2	0.09131993
202	0x3d4506ed	0.048102308
203	0xbda457cb	-0.08024558
204	0xbd8fd6f3	-0.0702342
205	0x3cc003e0	0.023439348
206	0xbd134a30	-0.035959423
207	0xbdbe3e72	-0.09289254
208	0xbd2f40ad	-0.04278629
209	0xbc9f8047	-0.019470347
210	0x3da59edd	0.080869414
211	0xbc802d40	-0.015646577
212	0x3c83b3f3	0.016077017
213	0xbda6c06a	-0.08142169
214	0xbdcff431	-0.10153998
215	0x3d82ab47	0.06380325
216	0x3d9eb068	0.077484906
217	0xbde1d274	-0.11026469
218	0xbd8663c7	-0.06562
219	0xbc9a7ded	-0.018858874
220	0xbd84fc68	-0.06493455
221	0x3d48646a	0.048923887
222	0x3c17dbf3	0.009268749
223	0xbd8ae2da	-0.0678155
224	0xbd48d1da	-0.049028255
225	0xbdbb7e62	-0.09154965
226	0x3d07949b	0.033100706
227	0xbd9776c0	-0.07395697
228	0xbdba0328	-0.09082633
229	0xba61d000	-0.0008614063
230	0xbd99196d	-0.07475553
231	0xbb170b33	-0.0023047447
232	0x3cf1a460	0.029497325
233	0x3d87e988	0.066363394
234	0x3c8c576d	0.017131532
235	0x3d5fd713	0.05464847
236	0x3c711500	0.014714479
237	0x3d6cfe2d	0.05785959
238	0xbd95b010	-0.07308972
239	0xbd69a150	-0.057038605
240	0x3d86820f	0.065677755
241	0x3d302267	0.04300156
242	0xbd7b0f87	-0.061294105
243	0xbdbf387b	-0.09336945
244	0xbd52d05d	-0.051468242
245	0x3c0fec67	0.00878439
246	0xbb64ef9a	-0.0034932853
247	0xbd6a23d7	-0.057163086
248	0xbdcc0215	-0.099613346
249	0x3c895487	0.016763939
250	0xbe1b938f	-0.15193008
251	0xbd8143db	-0.063117705
252	0x3cc7fffc	0.024414055
253	0xbcae8e7d	-0.021308178
254	0xbdb2e3e0	-0.0873487
255	0xbccd9f27	-0.025100304

bias f4 [100]
0	0xbe770595	-0.24123223
1	0xbdccdd6d	-0.10003171
2	0xbcbbd54b	-0.022928854
3	0x3ccb00a0	0.024780571
4	0xbe87766d	-0.2645754
5	0xbf1fbdb7	-0.62398857
6	0xbd643ed5	-0.055723984
7	0xbf1561f3	-0.58352584
8	0x3e85d6d9	0.26140478
9	0xbd5e8de9	-0.054334555
10	0xbf5e3842	-0.8680459
11	0xbc69e392	-0.014275448
12	0xbf0d9f7d	-0.55321485
13	0xbec61b0d	-0.38692513
14	0xbe8a9fc0	-0.27075005
15	0xbe1dde25	-0.15416773
16	0xbdb7fc06	-0.089836165
17	0xbdb23524	-0.08701542
18	0x3b9bdb87	0.0047563943
19	0xbc55c3ef	-0.0130472025
20	0xbdabc550	-0.08387244
21	0xbf1b6430	-0.6069975
22	0x3ca46b31	0.020070644
23	0x3f47f7cf	0.781125
24	0xbe833ef2	-0.2563396
25	0xbe38bf7d	-0.18041797
26	0xbdb5e7c9	-0.088821
27	0x3e6dcd8d	0.23222943
28	0xbf608e13	-0.8771679
29	0xbd819b5c	-0.063284606
30	0xbf74f90c	-0.95692515
31	0xbe394691	-0.18093325
32	0xbdf8f316	-0.1215574
33	0x3b295dcd	0.0025843263
34	0xbec838d2	-0.3910585
35	0x3e175b00	0.14780807
36	0xbee563b9	-0.44802645
37	0xbf1fead9	-0.62467724
38	0xbe96c41f	-0.29446504
39	0x3e68983d	0.22714324
40	0xbd66d3da	-0.05635438
41	0xbdc786b2	-0.09742488
42	0x3f7f66c3	0.99766177
43	0xbdde8b3c	-0.108664006
44	0x3e3e0270	0.18555617
45	0xbe24a623	-0.16079001
46	0x3e77e6ba	0.24209109
47	0x3b228877	0.0024800578
48	0xbdf23261	-0.11826015
49	0x3e3141cf	0.1731026
50	0x3da384c8	0.079843104
51	0xbede3dae	-0.43406433
52	0xbe04b791	-0.1296065
53	0xbf543804	-0.82897973
54	0x3d1bd080	0.038040638
55	0xbd771bd2	-0.060329266
56	0x3e4705da	0.19435826
57	0x3ce1a503	0.027544504
58	0xbe1b0795	-0.15139611
59	0xbdc97b41	-0.09837962
60	0x3e1e1c23	0.15440421
61	0xbeacdaa1	-0.3376055
62	0x3e1541d6	0.14575896
63	0xbd978fca	-0.074004725
64	0x3e8918bc	0.26776683
65	0x3db9babd	0.090688206
66	0xbdf15b36	-0.11784975
67	0xbdcbbbab	-0.09947904
68	0x3ed7f87f	0.42181775
69	0xbdd21e15	-0.10259644
70	0xbe060c43	-0.13090615
71	0x3ce134cb	0.027490994
72	0xbf6674b9	-0.90021855
73	0x3e3e3cf1	0.18577935
74	0x3eba3625	0.36369434
75	0xbd3ad331	-0.045611564
76	0xbd502952	-0.050820656
77	0xbd1a1f09	-0.037627254
78	0x3e00e5a0	0.12587595
79	0x3fa2168c	1.2663131
80	0x3cb07ab7	0.02154289
81	0xbe05b33b	-0.13056652
82	0x3e396d61	0.18108131
83	0xbd5321be	-0.05154585
84	0x3cdbc249	0.02682604
85	0xbb863ee3	-0.004096852
86	0xbcad3634	-0.02114401
87	0x3be3512b	0.006937166
88	0xbf09e39b	-0.53862923
89	0x3c91c34d	0.017793322
90	0xbe0e65d0	-0.13906026
91	0xbe7f1039	-0.24908532
92	0x3e92a2d4	0.28639853
93	0xbe3a12bd	-0.1817121
94	0xbe2ee0e9	-0.17077984
95	0x3c331e15	0.010932465
96	0xbe17e305	-0.14832695
97	0x3f0e8ba7	0.5568184
98	0x3e61e261	0.22059013
99	0xbd8b5a26	-0.06804304

weight f4 [100, 100]
0	0xbf8ebceb	-1.1151403
1	0x3d42407c	0.04742478
2	0x3d82ca7b	0.06386276
3	0x3e126cfa	0.14299384
4	0x3e767c7c	0.24070925
5	0xbf0a47d6	-0.5401586
6	0xbd7e2f8f	-0.062057074
7	0xbf158f07	-0.5842137
8	0xbefc5b23	-0.49288282
9	0xbc94995e	-0.018139537
10	0xbbae4fb1	-0.0053195585
11	0xbdb3f107	-0.08786207
12	0x3e6d4315	0.23170121
13	0xbf4dacec	-0.8034198
14	0xbe0f225f	-0.13977955
15	0xbeacc045	-0.3374044
16	0xbd85ef01	-0.06539727
17	0xbcfe1760	-0.031017005
18	0xbbfa8463	-0.0076451763
19	0xbdbf0e89	-0.09328944
20	0xbcfe2277	-0.031022293
21	0xbe88603a	-0.26635915
22	0x3ce39794	0.027782239
23	0x3e12707e	0.14300725
24	0x3debf8dd	0.11522076
25	0xbec99ef5	-0.39379087
26	0xbe079734	-0.13241273
27	0xbe27499f	-0.16336678
28	0x3da169c3	0.078815006
29	0x3d53a386	0.05166962
30	0xbe1f6f21	-0.15569736
31	0xbd1155ef	-0.035482343
32	0x3e424ec6	0.18975362
33	0x3dbcf0af	0.09225594
34	0xbf4428d4	-0.766248
35	0x3e549df8	0.20763385
36	0xbe84a90c	-0.25910223
37	0x3e962716	0.29326695
38	0xbe0c956a	-0.13728872
39	0x3dc1a3c7	0.09455066
40	0xbda1d204	-0.079013854
41	0xbcf0ead4	-0.02940885
42	0x3e26d45d	0.16291948
43	0xbc140f64	-0.009036873
44	0xbe95ace1	-0.2923346
45	0x3c85e609	0.01634504
46	0xbeb89bf5	-0.36056486
47	0xbd407b53	-0.04699261
48	0xbbcc72d8	-0.0062392764
49	0x3e00499b	0.12528078
50	0xbf765583	-0.9622423
51	0x3e30107f	0.17193793
52	0xbc989947	-0.018627776
53	0xbe2899e3	-0.16464953
54	0x3cd52714	0.02601961
55	0x3cc12112	0.02357534
56	0x3c837c1b	0.016050389
57	0xbea73532	-0.32657772
58	0xbdb75dfd	-0.08953474
59	0x3d1613d2	0.036639996
60	0x3d2daf87	0.042403724
61	0x3e1b250e	0.15150854
62	0x3f052577	0.5201029
63	0xbdc19ca2	-0.094537035
64	0x3cb406de	0.02197593
65	0xbf4a0a2d	-0.78921777
66	0xbd0ad792	-0.03389699
67	0xbe084e1f	-0.13311051
68	0x3da1c47d	0.07898805
69	0x3d494001	0.049133305
70	0x3d11d623	0.035604607
71	0xbd132bfb	-0.035930615
72	0xbf2719ae	-0.6527356
73	0x3f39a270	0.72513485
74	0xbfb70955	-1.4299723
75	0xbe30a46c	-0.17250222
76	0x3c5ff161	0.013668389
77	0xbe4b1c03	-0.19834904
78	0xbd8002d8	-0.062505424
79	0xbef64674	-0.48100626
80	0x3d53fafb	0.051753026
81	0x3dc20828	0.09474212
82	0x3d80804a	0.06274469
83	0x3db80347	0.08985
84	0x3dacb135	0.08432237
85	0x3d8d6f4f	0.06905996
86	0x3d0e5011	0.034744326
87	0xbda13052	-0.078705445
88	0x3db899db	0.090137206
89	0x3d63fbe4	0.055660143
90	0xbe13b99f	-0.14426278
91	0xbef4f4ad	-0.47842923
92	0x3dd2cab7	0.10292571
93	0x3dc47757	0.09593075
94	0x3e00a0e0	0.12561369
95	0x3c278031	0.010223434
96	0xbecad0c3	-0.39612398
97	0xbe0892e4	-0.13337284
98	0xbe8bfcfc	-0.2734145
99	0xbd8f05f1	-0.06983555
100	0x3b0e0b49	0.0021674207
101	0x3b8f38d7	0.0043707895
102	0x3db97e20	0.090572596
103	0x3db82b31	0.08992613
104	0xbe8fd672	-0.28093296
105	0x3da668ae	0.08125435
106	0x3dc46ddb	0.09591266
107	0xbdb4e7cc	-0.08833274
108	0xbcd58851	-0.026065977
109	0x3d659543	0.05605055
110	0xbe932a15	-0.28743044
111	0xbd977513	-0.07395377
112	0xbe21f0ae	-0.15814468
113	0xbd1ef337	-0.038806166
114	0x3d2ce530	0.042210758
115	0xbdafe141	-0.08587886
116	0xbd102664	-0.035192862
117	0xbde1b862	-0.11021496
118	0x3db22b57	0.08699673
119	0xbd9555f1	-0.07291783
120	0xbe546983	-0.20743375
121	0xbde502de	-0.111821875
122	0xbdb22d87	-0.0870009
123	0xbe07a439	-0.1324624
124	0xbe858ef5	-0.2608563
125	0x3db4b8aa	0.088242844
126	0xbd549ba9	-0.05190626
127	0xbe4a0497	-0.19728313
128	0xbcb8fd95	-0.022581855
129	0x3c2a89b3	0.010408807
130	0x3d6a599e	0.05721437
131	0x3d69ac99	0.057049368
132	0xbd9eecdf	-0.07760023
133	0xbd9c7ebd	-0.07641361
134	0xbd89545e	-0.06705545
135	0xbe1f1bb6	-0.15537915
136	0x3cd9cbf2	0.026586507
137	0xbeaba70a	-0.33525878
138	0xbe0d1b8f	-0.13780044
139	0xbe72629c	-0.23670429
140	0x3d0a285b	0.033729892
141	0x3dae91b0	0.085238814
142	0xbd895bb0	-0.06706941
143	0x3d0608f9	0.0327234
144	0xbd75586a	-0.05989877
145	0x3d7997b7	0.060935702
146	0x3ca02633	0.019549465
147	0xbdffa999	-0.1248352
148	0x3d2c70cf	0.04209977
149	0xbd1a0afe	-0.03760814
150	0x3d9d75e2	0.076885
151	0x3d01171b	0.031516176
152	0x3de5900e	0.11209117
153	0xbb4cae32	-0.0031231758
154	0xbbb0a1af	-0.005390368
155	0x3d6a33a4	0.057178155
156	0x3d2fb558	0.042897552
157	0xbde0039e	-0.1093819
158	0xbd4634da	-0.048390247
159	0xbcc3d474	-0.023905016
160	0xbda3d5cf	-0.07999765
161	0xbec9f5c2	-0.3944531
162	0x3dbe0f97	0.09280317
163	0x3d8737f7	0.06602471
164	0xbe2df8a2	-0.16989377
165	0xbda537de	-0.080672964
166	0x3d67b34b	0.05656747
167	0xbe0cb2e0	-0.1374011
168	0x3d6e7860	0.058220267
169	0xbdc45097	-0.09585684
170	0xbdcfed9e	-0.10152744
171	0x3d4ba38d	0.04971652
172	0xbe6f715b	-0.23383085
173	0x3cd1c3e6	0.025606107
174	0x3cf38d8d	0.029730583
175	0xbdba0795	-0.090834774
176	0x3c6da40d	0.014504445
177	0xbe326fd8	-0.17425478
178	0xbdd37c9b	-0.10326501
179	0x3d201403	0.039081585
180	0xbd34e5ae	-0.044164352
181	0x3c28c40c	0.0103006475
182	0xbbeba4ef	-0.0071912925
183	0xbd89d362	-0.06729771
184	0xbd4bc44f	-0.04974776
185	0xbdcacf7d	-0.099028565
186	0xbe0effdd	-0.13964792
187	0xbdc21afb	-0.09477802
188	0xbd4f6d4c	-0.050641343
189	0xbdb03a5a	-0.0860488
190	0x3d3a913f	0.045548674
191	0x3d65f214	0.056139067
192	0xbddc593b	-0.10759207
193	0xbd7a6ab7	-0.061136927
194	0xbe368cd7	-0.17827164
195	0xbd8b1118	-0.0679037
196	0xbdb1529d	-0.08658335
197	0xbe5ea510	-0.21742654
198	0x3a96fa55	0.0011518697
199	0xbc5569a7	-0.013025678
200	0xba772829	-0.00094282866
201	0xbd9670c5	-0.07345728
202	0x3cfcbf9a	0.030853081
203	0xbefbc004	-0.49169934
204	0x3c1d4338	0.009598546
205	0xbea45d0e	-0.32102245
206	0xbd1f2ab6	-0.03885909
207	0xbd5892af	-0.052874263
208	0xbdded3a9	-0.10880215
209	0xbd128795	-0.035773832
210	0xbd82b169	-0.063814946
211	0x3bf75333	0.00754776
212	0xbf179f8c	-0.59227824
213	0xbd57600a	-0.052581824
214	0xbdb45c84	-0.088067085
215	0xbf0040e1	-0.50099
216	0xbda1b7cc	-0.078963846
217	0xbd4e62a5	-0.050387044
218	0x3da42537	0.08014911
219	0x3cba9ea2	0.02278072
220	0xbd50d263	-0.05098189
221	0x3c95528b	0.018227836
222	0xbd064bd9	-0.032787178
223	0xbea68f72	-0.32531315
224	0xbebf939b	-0.37417302
225	0xba74128a	-0.0009310624
226	0xbcbff8b5	-0.023434022
227	0xbe229c1d	-0.15879865
228	0x3d21ed1f	0.039532777
229	0xbdc04312	-0.09387793
230	0xbe15404b	-0.14575307
231	0x3d02b359	0.03190932
232	0x3da1b4e8	0.07895833
233	0x3cd1c61a	0.025607157
234	0xbe0bc4b2	-0.13649252
235	0xbdd1d179	-0.10245032
236	0xbdc8f000	-0.09811401
237	0xbe61ff66	-0.22070083
238	0x3df45a67	0.119313054
239	0xbe1426a9	-0.14467873
240	0x3d137cdf	0.03600776
241	0xbc5eb81a	-0.013593698
242	0x3e45089f	0.1924157
243	0xbc87d2ef	-0.016580073
244	0xbee62c72	-0.44955784
245	0xbcba62d8	-0.02275221
246	0xbd85740b	-0.06516274
247	0xbdba5459	-0.09098119
248	0x3d9fc307	0.078008704
249	0x3dca2173	0.09869661
250	0x3c9a74ae	0.018854465
251	0x3e08020c	0.13282031
252	0xbcb849fa	-0.022496212
253	0xbdb29844	-0.087204486
254	0xbce9a500	-0.028521061
255	0xbdb988d3	-0.090593

bias f4 [100]
0	0x3f269d54	0.65083814
1	0xbcba5474	-0.022745349
2	0xbebc43fe	-0.36770624
3	0xbea8f037	-0.3299577
4	0xbce6082f	-0.028080074
5	0xbd882900	-0.06648445
6	0xbe4eb5c0	-0.2018652
7	0x3ea33acc	0.31880796
8	0xbf82f628	-1.0231371
9	0xbe8658d6	-0.2623965
10	0xbe13e3b5	-0.14442332
11	0x3f0d0655	0.55087787
12	0xbe817f4a	-0.25292426
13	0xbe8acce2	-0.27109438
14	0x3db8c06a	0.09021075
15	0xbe717bdf	-0.2358241
16	0x3eb3a8dd	0.3508977
17	0xbe24b17a	-0.16083327
18	0xbe325acc	-0.17417449
19	0xbd226cb5	-0.039654452
20	0x3e87c57b	0.26517853
21	0xbe2c1910	-0.16806436
22	0x3ccd230a	0.025041122
23	0xbd20de69	-0.039274607
24	0xbdc6a11c	-0.09698698
25	0xbd1a053c	-0.03760265
26	0x3ed60ef6	0.4180829
27	0x3e0b968f	0.13631652
28	0xbe2ce3db	-0.16883795
29	0xbe72f8d4	-0.23727733
30	0xbd56a4e7	-0.052403357
31	0xbf69f79a	-0.91393435
32	0x3e16cf62	0.14727548
33	0xbca655cc	-0.020304583
34	0x3eb2481b	0.34820637
35	0xbe9443ef	-0.2895808
36	0xbde41b0e	-0.11137973
37	0xbea150b3	-0.3150688
38	0xbe361022	-0.17779592
39	0xbe290a64	-0.1650787
40	0xbe89f9de	-0.26948446
41	0xbe16ca29	-0.14725555
42	0x3f264cb8	0.64960814
43	0xbe2a4c19	-0.16630591
44	0xbee9f4b6	-0.45694512
45	0xbf25d1d9	-0.6477333
46	0xbc4f0d53	-0.012637454
47	0x3e34f4da	0.17671528
48	0xbe622a16	-0.22086367
49	0xbfa1aa3b	-1.2630075
50	0x3e4fec94	0.20305091
51	0xbda6cf97	-0.08145063
52	0xba195c1d	-0.0005850213
53	0xbf101303	-0.5627901
54	0xbe67a1e2	-0.22620347
55	0xbca184d3	-0.019716656
56	0x3ebe9027	0.37219355
57	0xbad1be5c	-0.0016002166
58	0xbdf1ba17	-0.11803072
59	0xbe00e584	-0.12587553
60	0xbde20224	-0.110355645
61	0xbd409448	-0.047016412
62	0xbf3164d0	-0.6929445
63	0xbc183cb3	-0.009291816
64	0xbe44cc7e	-0.19218633
65	0xbdf3eb74	-0.119101435
66	0xbe87d34f	-0.26528403
67	0x3f3243ce	0.6963471
68	0xbda1762c	-0.078838676
69	0x3de715ae	0.11283432
70	0x3b8c4c77	0.0042815763
71	0xbdf72f98	-0.12069625
72	0xbea70333	-0.32619628
73	0xbda2449b	-0.07923242
74	0xbdb084ef	-0.08619105
75	0xbe1bbcab	-0.1520869
76	0xbf792801	-0.97326666
77	0xbdf1b4ae	-0.1180204
78	0xbd28a0ae	-0.04116886
79	0x3e3e63bf	0.18592738
80	0xbe197a99	-0.14988174
81	0x3eeb69b4	0.45979083
82	0xbea4af1c	-0.32164848
83	0xbdc84b17	-0.09779947
84	0xbe860b3b	-0.26180443
85	0xbe626c2b	-0.22111575
86	0xbe64afc9	-0.22332682
87	0xbe6328cf	-0.22183536
88	0x3e3f26c3	0.1866713
89	0x3ed99c5d	0.42502108
90	0xbe1d7158	-0.15375268
91	0xbed6d869	-0.41961983
92	0xbea566b5	-0.32304922
93	0xbe7cb11d	-0.24676938
94	0xbd8351e1	-0.064121015
95	0x3ae7319a	0.0017638684
96	0xbead1b1e	-0.3380975
97	0x3f5eb91b	0.870012
98	0x3e5ee150	0.21765637
99	0xbe03c014	-0.1286624

weight f4 [100, 100]
0	0x3ddb9624	0.107219964
1	0xbd1c028b	-0.038088363
2	0x3e667569	0.22505726
3	0xbe4a0dc6	-0.19731817
4	0x3cfb9a0c	0.030713104
5	0x3cb2de7b	0.021834603
6	0x3cd7e7e4	0.026355691
7	0x3d30b2e4	0.043139353
8	0xbdaa835d	-0.08325837
9	0x3d8a9ee5	0.06768588
10	0x3e04bdb7	0.12962995
11	0xbe92e0c0	-0.28687096
12	0xbe4e82e4	-0.20167118
13	0x3d3f65f8	0.046728104
14	0xbd8d6762	-0.06904484
15	0x3e9a01e0	0.30079556
16	0x39bf5e53	0.00036500636
17	0xbd286da2	-0.04112018
18	0xbea035ee	-0.31291145
19	0xbd86bee0	-0.06579375
20	0x3df90ef9	0.12161059
21	0xbdb95a1e	-0.090503916
22	0x3d13beee	0.036070757
23	0x3db7afd6	0.08969085
24	0xbdb8c8f1	-0.090227015
25	0x3d1a006a	0.03759805
26	0xbe3d6fe1	-0.1849971
27	0xbde6471f	-0.11244034
28	0xbda5c976	-0.08095066
29	0x3aaf6a83	0.0013383183
30	0x3db70498	0.08936423
31	0xbe080c44	-0.13285929
32	0x3dc8093c	0.09767386
33	0x3db10327	0.086431794
34	0x3c6e320e	0.014538301
35	0x3da6b952	0.08140816
36	0xbd94fafe	-0.072744355
37	0x3c0078a7	0.007841266
38	0xbd59f7be	-0.05321478
39	0x3cea57f6	0.028606396
40	0xbe9aaea5	-0.30211368
41	0xbb9d7fcb	-0.004806494
42	0xbcb78f6d	-0.022407258
43	0xbc9805cb	-0.01855745
44	0xbd904d55	-0.07046
45	0x3c61590a	0.013754139
46	0x3de41771	0.111372836
47	0xbe2eb3ea	-0.1706082
48	0xbd2816b3	-0.041037273
49	0xbe52d18a	-0.20587745
50	0x3ce4c877	0.02792762
51	0xbd514b87	-0.05109742
52	0xbdf5a84e	-0.11994992
53	0xbc87611f	-0.016525803
54	0xbd943eef	-0.07238566
55	0xbc30a86a	-0.010782341
56	0xbdb94e5e	-0.090481505
57	0xbd9764dc	-0.07392284
58	0xbda2ba02	-0.079456344
59	0x3d33c17c	0.043885693
60	0x3abb7fb9	0.0014305032
61	0xbd1dd16f	-0.03852981
62	0xbe178435	-0.14796527
63	0xbc8c6ce9	-0.017141776
64	0x3d115427	0.035480645
65	0x3d59096e	0.05298751
66	0x3e3375a2	0.17525342
67	0xbdd4897b	-0.10377785
68	0x3cd7d4bd	0.026346559
69	0x3cb2e44b	0.021837374
70	0x3deb8bf9	0.11501307
71	0xbd847165	-0.06466941
72	0xbf30c103	-0.6904451
73	0xbde3e6db	-0.111280166
74	0x3d67e095	0.056610662
75	0x3d482c22	0.048870213
76	0xbde984ab	-0.114022575
77	0xbdf28fd2	-0.11843838
78	0xbcb1d60b	-0.021708509
79	0xbdb7fc47	-0.08983665
80	0xbdc6491c	-0.09681913
81	0xbee20f9f	-0.44152543
82	0xbe03e8eb	-0.1288182
83	0x3dbbc508	0.0916844
84	0xbd9fd14f	-0.07803594
85	0xbd90b16c	-0.070650905
86	0x3d82e006	0.06390385
87	0xbf1c2d1f	-0.6100635
88	0xbe3ab3ea	-0.18232694
89	0x3d86739f	0.06565022
90	0x3d77284f	0.060341176
91	0xbb78a7f7	-0.0037941912
92	0x3d8f027a	0.06982894
93	0x3ca3feac	0.020018898
94	0x3df0c032	0.11755408
95	0x3d969d8f	0.07354271
96	0xbc3e1f33	-0.011604118
97	0x3ca192a4	0.019723244
98	0xbe67632d	-0.22596426
99	0xbd9b0db3	-0.07570972
100	0x3db3149c	0.08744165
101	0x3c9b3786	0.018947374
102	0xbefa1bff	-0.48849484
103	0xbec0c253	-0.37648258
104	0x3e0bd950	0.13657117
105	0xbc0c68ad	-0.0085698785
106	0x3bca32b2	0.006170594
107	0x3e2c7d25	0.16844614
108	0xbe288ac5	-0.16459186
109	0x3e53951c	0.2066235
110	0x3ebd6e3d	0.36998168
111	0xbeac806f	-0.33691737
112	0xbd09513c	-0.033524737
113	0x3bd1f69e	0.006407573
114	0x3e9a5587	0.30143377
115	0x3e1ad803	0.15121464
116	0xbe1e7ae5	-0.15476568
117	0xbddcde60	-0.10784602
118	0x3e81527b	0.2525824
119	0xbc0e4716	-0.00868394
120	0xbeef6934	-0.4675995
121	0x3d66f1fb	0.056383114
122	0xbda38941	-0.079851635
123	0x3d7540a3	0.059876096
124	0xbc690612	-0.014222639
125	0xbe49249f	-0.19642876
126	0x3d5e7c4c	0.054317757
127	0x3e4b2037	0.19836508
128	0x3c857f4d	0.016296053
129	0xbed559a6	-0.4166996
130	0x3b71f992	0.0036922437
131	0xbeb55b89	-0.35421398
132	0xbeaf7c18	-0.34274364
133	0xbd077f94	-0.033080652
134	0x3d09ccac	0.033642456
135	0x39528e8c	0.00020080263
136	0xbdb40e14	-0.08791748
137	0xbeca32e3	-0.39491948
138	0xbf0ec28a	-0.55765593
139	0x3d9dec89	0.07711131
140	0xbeba4887	-0.3638346
141	0xbdbf8151	-0.09350837
142	0xbf1bfc5a	-0.6093193
143	0x3cd088fb	0.025455942
144	0x3cc413fc	0.02393531
145	0x3e32d235	0.17463
146	0x3e894c8a	0.26816207
147	0x3d565158	0.05232367
148	0xbdb58845	-0.08863882
149	0xbd2fb3da	-0.04289613
150	0xbea3eff0	-0.32018995
151	0x3dd242d5	0.102666534
152	0x3d8766b7	0.06611388
153	0xbef92dc3	-0.48667726
154	0x3da77269	0.08176119
155	0x3dd5bfdd	0.10436986
156	0xbdd64f65	-0.10464362
157	0xbd6d5d99	-0.05795059
158	0x3d2c453b	0.04205821
159	0xbc0e2c69	-0.00867758
160	0x3bf926aa	0.007603486
161	0x3dd5360c	0.10410699
162	0xbe967cf7	-0.29392216
163	0xbd7c62c4	-0.061617628
164	0xbe356b5e	-0.17716739
165	0x3dd66ca5	0.10469941
166	0xbeae3c5c	-0.34030426
167	0xbda0a5cd	-0.07844124
168	0xbda37802	-0.07981874
169	0x3d9748f5	0.07386962
170	0x3d71e72e	0.05905836
171	0xbdc88ea9	-0.09792835
172	0xbc9fce45	-0.019507537
173	0x3d8741e8	0.066043675
174	0xbcf330a9	-0.029686289
175	0xbd9a1337	-0.07523196
176	0xbedf5798	-0.43621516
177	0xbcbf8fea	-0.023384053
178	0x3d26cc3c	0.040722117
179	0xbe0bef32	-0.13665465
180	0x3dc865f8	0.09785074
181	0x3c984ca6	0.018591236
182	0xbce59171	-0.028023453
183	0xbc9ed15e	-0.019386943
184	0xbc192bd4	-0.009348828
185	0x3b801d6b	0.003909757
186	0xbcd8dc0b	-0.026472112
187	0x3d846a50	0.0646559
188	0x3e674dfa	0.2258834
189	0x3dfbdeb7	0.12298339
190	0x3c4de011	0.012565629
191	0xbe10baa1	-0.14133693
192	0xbd582184	-0.052766338
193	0xbe455361	-0.19270088
194	0xbca0f226	-0.019646715
195	0x3d88d538	0.06681293
196	0xbdb30ea7	-0.08743029
197	0xbe4d1139	-0.20026101
198	0xbe93237d	-0.28738013
199	0xbc4dec77	-0.012568585
200	0xbeadbb4c	-0.3393196
201	0xbddc7e32	-0.10766257
202	0x3e537f7b	0.20654099
203	0x3ea43358	0.32070422
204	0xbd79a5d7	-0.060949173
205	0xbda9180f	-0.08256542
206	0xbd6bad2c	-0.057538196
207	0xbee7a222	-0.45240885
208	0xbd6e4e4e	-0.058180146
209	0x3b1116ea	0.0022138902
210	0x3acbbe30	0.0015544351
211	0xbd8da03a	-0.069153264
212	0x3d5ccbff	0.053905483
213	0xbd14b690	-0.036306918
214	0xbf46370e	-0.77427757
215	0xbe4c20e9	-0.19934429
216	0xbba834b8	-0.0051332377
217	0xbd9178af	-0.07103097
218	0xbe7ac134	-0.24487764
219	0xbd8352dd	-0.06412289
220	0xbd94468f	-0.072400205
221	0xbd33da40	-0.04390931
222	0xbdcbe2c1	-0.09955359
223	0x3b04b6e0	0.0020250604
224	0xbd9a5097	-0.075349025
225	0x3d0d025e	0.034426086
226	0x3dccdf66	0.10003547
227	0xbf760d4c	-0.9611404
228	0xbd49574b	-0.049155515
229	0xbc847c6f	-0.016172616
230	0xbd1c432a	-0.03814999
231	0xbea27222	-0.317277
232	0xbe3fca44	-0.18729502
233	0xbeab6d89	-0.33482006
234	0xbebb1d4a	-0.36545783
235	0xbda716b3	-0.081586264
236	0xbbbc885b	-0.0057535595
237	0xbeda2632	-0.42607266
238	0x3d84bee5	0.06481723
239	0xbd8f5ec1	-0.07000495
240	0x3e82ba8c	0.2553295
241	0x3ea2439e	0.31692213
242	0xba6e2222	-0.00090840657
243	0x3d105fa6	0.035247467
244	0x3c215b1f	0.009848385
245	0xbe19f730	-0.15035701
246	0x3ca48177	0.020081265
247	0xbd516f63	-0.051131617
248	0xbfae7cfc	-1.3631892
249	0x3e216c45	0.15763958
250	0x3db2305d	0.08700631
251	0xbc51ffd2	-0.01281734
252	0x3d3f1e73	0.046659898
253	0xbcc92f51	-0.024558695
254	0xbd3db77c	-0.046317562
255	0xbde41da1	-0.11138464

bias f4 [100]
0	0x3e56733a	0.20942393
1	0x3eca36d4	0.39494956
2	0xbec4d180	-0.38441086
3	0xbea3583a	-0.3190325
4	0xbe49d711	-0.19710948
5	0xbe2c40eb	-0.16821639
6	0xbe815d97	-0.25266716
7	0xbe200eef	-0.15630697
8	0xbe9a820d	-0.30177346
9	0xbe7ae042	-0.2449961
10	0xbebacaf4	-0.36482966
11	0xbe15e804	-0.14639288
12	0xbe55eeee	-0.20891926
13	0xbf9df537	-1.2340459
14	0xbf1b93ef	-0.60772604
15	0xbe833d1e	-0.25632566
16	0xbeb21ba3	-0.3478671
17	0xbea69690	-0.32536745
18	0xbe7acb94	-0.24491721
19	0xbe80e8da	-0.25177652
20	0xbe01ef3f	-0.12688921
21	0xbb9f7fca	-0.0048675286
22	0x3cc87334	0.024468996
23	0xbece7551	-0.4032388
24	0xbe8fa55e	-0.28055853
25	0xbe9c582d	-0.30536023
26	0xbe63da73	-0.222513
27	0xbe3a225f	-0.18177174
28	0xbecd53e1	-0.40103057
29	0xbe9e27e6	-0.30889815
30	0xbed6e431	-0.4197097
31	0xbe9f387d	-0.31097785
32	0xbe36f5f0	-0.17867255
33	0xbe308d2a	-0.1724135
34	0xbe7c6785	-0.24648865
35	0xbe5af6ab	-0.21383159
36	0x3eb11ca1	0.34592155
37	0xbe00d209	-0.12580122
38	0xbf01e30a	-0.5073706
39	0x3ed754bc	0.42056835
40	0xbe054943	-0.13016228
41	0xbe4fd80a	-0.20297256
42	0xbe68385f	-0.22677754
43	0xbe348899	-0.17630233
44	0xbe7b3ad5	-0.24534161
45	0xbe3d3208	-0.18476117
46	0xc02a224d	-2.6583436
47	0xbe3b757f	-0.1830654
48	0xbe89bb40	-0.26900673
49	0x3f1276c3	0.57212466
50	0xbd63759a	-0.055532075
51	0xbed0f84e	-0.4081444
52	0xbdcc4609	-0.09974296
53	0x3f098b95	0.5372861
54	0xbdb17aee	-0.08666025
55	0xbe12018a	-0.142584
56	0xbe28a38f	-0.16468643
57	0xbe46138e	-0.19343397
58	0xbe9bd733	-0.3043762
59	0xbf152483	-0.5825884
60	0xbe42bfd0	-0.19018483
61	0x3f2051c8	0.6262479
62	0xbef7783d	-0.48333922
63	0xbe2cbf71	-0.16869904
64	0xbeca847f	-0.39554211
65	0xbde5a4aa	-0.11213048
66	0xc0213c2f	-2.5192983
67	0xbe7aa67f	-0.24477576
68	0x3e5c605d	0.21521135
69	0xbf5f053d	-0.8711737
70	0xbeb8f9e9	-0.36128166
71	0xbe05ae91	-0.13054873
72	0xbecafe2f	-0.39647052
73	0xbea26adb	-0.3172215
74	0xbe63668a	-0.22207084
75	0xbe8d2592	-0.27567726
76	0xbf20437c	-0.62602973
77	0xbe7d92b6	-0.24762997
78	0xbdef906f	-0.116974704
79	0x3f1e013b	0.6172063
80	0x3e8798a5	0.26483646
81	0x3e7de783	0.24795346
82	0xbe27d560	-0.1638999
83	0x3e343178	0.17596996
84	0xbf80ec71	-1.0072156
85	0xbe49ee48	-0.19719803
86	0xbd76de7f	-0.060270783
87	0xbe1806c0	-0.14846325
88	0xbe20b583	-0.15694241
89	0xbe86ee6d	-0.2635378
90	0xc00593f6	-2.0871558
91	0xbf8bd8e8	-1.092557
92	0xbe5db983	-0.21652798
93	0xbe1a7d2e	-0.15086815
94	0xbe56a967	-0.2096306
95	0xbf13926d	-0.57645303
96	0xbecaa051	-0.39575437
97	0xbf1d46c6	-0.61436117
98	0xbf79e757	-0.9761862
99	0xbe7552bc	-0.23957342

weight f4 [1, 100]
0	0x3bf9eeef	0.00762736
1	0xbcadf857	-0.021236582
2	0xbc56118d	-0.013065708
3	0x3cb48ac8	0.022038832
4	0x3caac6eb	0.020846805
5	0xbd56f3dd	-0.05247866
6	0xbc0d880d	-0.008638394
7	0x3c72afb4	0.014812399
8	0x3aea67b0	0.0017883684
9	0xbb2d054a	-0.0026400858
10	0x3c963a16	0.018338244
11	0xb706d3a8	-8.0363025e-06
12	0xbb9fe6dc	-0.0048798155
13	0xbceab66c	-0.028651439
14	0x3d2ec031	0.042663757
15	0xbcb575cb	-0.022150895
16	0xbc2a804e	-0.010406567
17	0xbc3d313a	-0.011547381
18	0xbbd97c91	-0.006637164
19	0x3c5d345d	0.013501254
20	0xbb6f8cb0	-0.0036552362
21	0xbcafac19	-0.021444367
22	0xbca821fc	-0.020524018
23	0xbc0d6dcc	-0.008632135
24	0x3bad5fdb	0.005290968
25	0x3cd1523d	0.02555191
26	0x3bfffc40	0.007812053
27	0x3cd97133	0.026543235
28	0x38b347b7	8.548743e-05
29	0xbca6445d	-0.02029627
30	0xbd15ce3e	-0.03657364
31	0x3cbf0300	0.02331686
32	0xbc15a38a	-0.009133229
33	0x3c8fe25d	0.017563993
34	0xbb6784f1	-0.0035327042
35	0x3cba07bc	0.022708766
36	0x3be4f94c	0.0069877263
37	0xbd020797	-0.03174552
38	0xb8b73ee0	-8.7378314e-05
39	0xbd24719c	-0.04014741
40	0x3cf8d4c0	0.030374885
41	0x3cecc9f7	0.028904898
42	0x3d03d96c	0.03218977
43	0x3c7d8142	0.015472712
44	0x3c44ff3f	0.012023746
45	0xbce1e0d1	-0.027573021
46	0xbd88c0fc	-0.06677434
47	0xbad9ca31	-0.0016616044
48	0xbb31b1cc	-0.0027114032
49	0x3ca1a02d	0.019729698
50	0xbb08cddd	-0.0020874657
51	0xbcc1ddfe	-0.023665424
52	0xbbde7d4f	-0.0067898403
53	0x3d92f036	0.07174723
54	0xbc1ae457	-0.0094538545
55	0x3c9998a2	0.018749539
56	0x3cd6bacf	0.026212124
57	0xbb8a7929	-0.004225869
58	0xbcadd5d7	-0.02122013
59	0x3c94b7c8	0.01815404
60	0xbc4742dd	-0.012161938
61	0x3ca48f94	0.020087995
62	0x3cd9fa82	0.02660871
63	0xbbc04867	-0.005868006
64	0x3c9e743d	0.019342536
65	0xba47551a	-0.00076039287
66	0xbd3e70df	-0.04649436
67	0x3c29b15f	0.01035723
68	0xbc773133	-0.015087414
69	0xbc8c4207	-0.017121328
70	0x3ce8e5ab	0.028429827
71	0xbce7553a	-0.028238881
72	0x3c3a2c9d	0.011363176
73	0xbcf3fef5	-0.029784659
74	0x3c354069	0.01106272
75	0xbc3946a3	-0.011308345
76	0xbcaebda9	-0.021330671
77	0x3b9bc2fe	0.0047534695
78	0x3ce2454a	0.02762093
79	0xbc782beb	-0.01514719
80	0xbce5bcc5	-0.028044114
81	0x3c2b20cf	0.010444834
82	0x3cbf030b	0.02331688
83	0xbcea373d	-0.028590793
84	0x3b8a9710	0.004229434
85	0x3c664ab1	0.014055894
86	0x3d59077a	0.052985646
87	0x3ba9a149	0.0051766974
88	0x3b84b02d	0.004049322
89	0x3c48d2a7	0.012257255
90	0xbcfab7f0	-0.030605286
91	0xbceeb637	-0.029139621
92	0xbcb0a9f6	-0.021565419
93	0xbba5cd21	-0.0050598537
94	0x3cc68bc7	0.024236573
95	0xbc784ed6	-0.015155515
96	0xbc79474f	-0.015214755
97	0xbd1ac211	-0.037782732
98	0xbcc3f2be	-0.02391946
99	0xbc40fdfa	-0.011779303
